weights.npz (npz, 81042 bytes, 6 tensors)

filter1 f8 [3, 3]
-0.5002797550099203 0.7049194467502674 0.706386953768663 0.6387077968853903 1.0198775291337536 1.0729166792318947 -0.34601730108725715 0.35122593909054267
0.7116639113773949
00000000: c0ca 53b0 4a02 e0bf 016b 433a b38e e63f
00000010: 353d 18d0 b89a e63f b455 6a55 4b70 e43f
00000020: 4be0 9819 6b51 f03f 7f24 0aae aa2a f13f
00000030: f046 01c0 2525 d6bf 32a6 795c 7c7a d63f
00000040: d37f 2365 f3c5 e63f

filter2 f8 [3, 3]
0.27166798576656026 0.40379604119913576 -0.23113649327830044 0.9013933967335986 0.6914323463419672 0.31465815379786266 0.5265251863021274 0.5871606626339978
-0.11585068507972957
00000000: 5834 8f1e 0263 d13f 7517 cd59 cbd7 d93f
00000010: 286e c56f e195 cdbf 19a3 f9f6 36d8 ec3f
00000020: eeed 5dba 3620 e63f dad1 fef3 5b23 d43f
00000030: a403 f658 4bd9 e03f bc57 7028 05ca e23f
00000040: 6cfa a2f7 63a8 bdbf

W1 f8 [144, 64]
0.023971675451739154 -0.0017500293058921603 -0.028288491369553474 -0.002280154317016156 6.667922399810582e-05 -0.004149394874012094 0.004551684004353903 0.0029340685361854413
-0.01252207609973919 0.0016228167207721024 0.00392322813274083 0.012170123003083408 0.0037086735929738913 -0.013151963887032788 0.009531165457379073 0.0026696619714010996
-0.005472401190121338 0.003561087696736941 0.0037259644124758968 0.008108882085831283 -0.01625137001032252 0.0029175274668721473 0.008860198200935821 -0.012664503145802935
-0.007865619716950599 0.00648439965208136 0.007608944798564057 0.0011861441079614797 -0.01089066244350017 0.015968530941342672 0.01017595621870662 -0.006992441037330241
0.023083791193465875 0.003233589958953129 -0.00487114961742953 0.0053709981974439085 -0.00166052629746511 -0.01546903354431245 0.005593088365114615 -0.0117130154816586
-0.008226821804411593 -0.0028930775643486555 0.0062888958938744225 0.00740865115152598 0.01584440620232617 -0.008885626959842139 -0.01685136672111575 -0.004117540148412904
0.009352523147200802 0.0006530581439200203 -0.016585723770999396 0.0029212721485694392 -0.004810433716009482 0.001667453944851814 -0.0029983874646302804 0.017469397687082906
0.004944371999904399 -0.01156510924524058 -0.0012265363813521784 0.005895808439076759 -0.011132965258429812 0.00840142847395811 0.010999098436956817 0.007342193205348885
-0.007812898391117333 -0.0017193198016048018 0.006527744840739581 -0.03516576730771662 -0.004903521176142279 0.003787361919079835 -0.0006739686808417949 0.009924629100499809
-0.0027082957387462147 0.01167868048885273 0.010491271740050875 -0.005786741461509724 -0.018272963705693722 -0.019705453084369075 0.01590532039134432 -0.014840191575960948
0.009480812767470119 0.0060695459368059835 0.002015655131281872 -0.01865479000921002 0.022071419842882946 0.013604088794040672 0.005772962303233971 0.00774195642886976
-0.00804129317195491 -0.003858144556658269 -0.027592854243624506 -0.01161321150576995 -0.002589157626408053 0.015005919335237065 -0.00417368625268115 0.022475235354214224
-0.018790344416727195 -0.0023555076414823427 0.0029005098205779753 0.003777137787043443 0.009136657968341897 -0.005470029844947835 0.005302458679006212 0.014830964357235937
-0.010685929299438273 0.0012154057203695881 0.016113569069209292 -0.021980954747924462 0.0009425040986643273 -0.0072675796487753335 0.0009470161286677241 -0.009264593631160159
-0.007100250099805331 0.0036381731377418246 -0.011577492587435715 -0.020640796105063936 0.0123044542699628 -0.005773109019897635 0.007606796455630922 0.0002806097886278825
0.0008404852452307343 0.00309197891562622 0.026994415766687926 -0.022038468479716324 0.0008990033778220589 -0.004839158785931822 0.02248073777617585 0.013816247876512571
0.005958097392057712 0.004594639110585926 -0.015264900488296745 -0.006837855232930028 0.039228257986095874 0.0269199180201542 -0.0026079699364169088 0.008956588483138515
-0.021774859478309868 0.029499589668422577 -0.021879696244752278 0.022321186063960483 -0.00037019174111379454 0.00218038995703881 -0.013816924087016215 -0.019579203217241277
-0.01010394335810239 0.000285139999234252 -0.011552475699750493 -0.0011872132911679978 -0.007265179852640168 0.028599908774746774 0.02458191028297767 -0.01744617113020756
0.012392336681013008 -0.022447406302652018 -0.03985012783962296 -0.005105351288443487 -0.002431335297836366 0.01959757366055349 -0.004779408295595564 0.014222557454389476
-0.015318307292421422 -0.005582847779836083 -0.01920531986359172 0.0009287729501638531 0.011523225400409468 -0.002800876339970609 -0.015656980774983457 0.011319766679891128
-0.006697970691517304 0.002771648853252562 0.010126160582871383 0.006129912720031885 -0.00586403097680926 -0.039355889176363235 0.008424726607300804 -0.00031165379200109573
-0.010072790529510113 0.003107156339527723 0.006475678640559997 -0.0018383043950952643 0.026007867318457136 0.003170582524278266 -0.01902625355081709 0.013266499303495787
-0.017203904167097356 -0.002728392721097478 0.031904203617264586 -0.01990126589578371 0.028642624113749123 -0.0283420102187628 0.006797332427509896 0.03218014124647034
-0.022283896896261857 0.005070456610409688 -0.012677847716522198 -0.025854408141133146 0.07101398728407995 0.019191199702821803 -0.0001825662170696331 0.03192638011483323
-0.03430553782607261 0.08906830059924488 -0.02434416418926467 -0.005250710687388528 -0.010766619890693274 -0.02519143096936974 0.016097358978547957 -0.02105148080896479
-0.03978139208402067 0.017226247750613478 0.0124808771104358 -0.017590753216802334 0.009766639629422962 0.08134591652668512 0.028617531100765755 -0.04042121275334679
0.01672227573293407 -0.025614560493982027 -0.07594479775421145 -0.012769709742240416 -0.022154665698091467 0.058866837339716566 -0.0017736896065524462 0.003312621723248273
-0.013243872848254156 0.01112418011969713 -0.015441009749911114 0.005587575275479994 0.007423825311118626 -0.0007620067158266501 -0.03580508030630895 0.008671298406007163
-0.04576775293792674 -0.037440055927234865 0.03469977739104418 -0.006889110636792627 -0.0445249155147108 -0.034320158012259655 -0.024773362108550034 -0.02000575692854367
-0.0254645776300046 -0.04320006795581905 -0.035551134811988794 -0.003008147668852797 -0.0029422349355310426 -0.0037087734540891403 -0.019259499254069293 -0.005053199133223063
-0.011175614416751491 0.0014050015084854325 0.049474706957290615 -0.05550480756602384 -0.00794862402655066 -0.035056201059226556 0.0030092343580017003 0.07952283101451986
00000000: bbd6 61e8 078c 983f 86bd b1a8 27ac 5cbf
00000010: a142 2485 a8f7 9cbf 60da 1587 d4ad 62bf
00000020: 49ce 7758 c47a 113f ea5d 83b4 f4fe 70bf
00000030: 7cfc 0b5f c9a4 723f 8048 070d 3009 683f
00000040: 3479 9c9a 2ca5 89bf 673f 8f2f 9696 5a3f
00000050: 0cdd 6588 cd11 703f c5d5 4a42 a6ec 883f
00000060: 0838 63f9 a661 6e3f 8b0f 2fb6 6aef 8abf
00000070: 7829 755f 1385 833f 5a2e 79db afde 653f
00000080: 514c 4682 3a6a 76bf 4af4 4266 242c 6d3f
00000090: 5b4c 86e9 e985 6e3f 8716 edba 639b 803f
000000a0: 248f d6fa 32a4 90bf 2ed1 c5a1 7fe6 673f
000000b0: a7a1 12ac 4b25 823f 4987 a6d6 d8ef 89bf
000000c0: 5f9c 939b d91b 80bf fdc2 09c7 628f 7a3f
000000d0: c307 1291 8e2a 7f3f 1efc ba89 0c6f 533f
000000e0: 9c7e 36f8 d74d 86bf 4607 a2f8 0d5a 903f
000000f0: cfa8 51b9 21d7 843f a352 3119 1ba4 7cbf
00000100: d079 f900 47a3 973f 9484 ea63 547d 6a3f
00000110: 9101 d044 c5f3 73bf fea7 ad59 e6ff 753f
00000120: 1d9b 1289 c034 5bbf a06d 6389 3aae 8fbf
00000130: 70f4 c939 c7e8 763f 433b 7353 fefc 87bf
00000140: c3bb cc54 39d9 80bf 18e5 c130 39b3 67bf
00000150: b100 13a3 62c2 793f 66d2 73a6 8858 7e3f
00000160: bba7 da19 8439 903f 2569 93a9 a032 82bf
00000170: 1e23 d713 7c41 91bf 693b 70c4 8ddd 70bf
00000180: bc21 6b68 6a27 833f c54b 6daf 3f66 453f
00000190: b72d b514 d9fb 90bf 4502 e80a 5aee 673f
000001a0: c65e d6f7 1ab4 73bf 5f50 490a cf51 5b3f
000001b0: 980a 3e03 1390 68bf 65c3 fc6e 7fe3 913f
000001c0: 911e 9fc0 8c40 743f 4722 ddaf 72af 87bf
000001d0: 1cf8 4b69 7718 54bf eb79 de06 3426 783f
000001e0: 9728 8a4d e1cc 86bf cf5c 48a4 c434 813f
000001f0: 10e5 9300 b286 863f 6d8b 2afb d812 7e3f
00000200: c953 9d78 3500 80bf 67b8 6e94 592b 5cbf
00000210: 74c4 b829 d6bc 7a3f c4ff 0c59 3f01 a2bf
00000220: b46d 63f1 b615 74bf 4efa 9372 ac06 6f3f
00000230: f0d3 abb8 a815 46bf a9e8 4a2b 5d53 843f
00000240: 1ca5 0634 b52f 66bf 1e98 14f6 fdea 873f
00000250: debf 22a8 727c 853f 98d0 3d95 d6b3 77bf
00000260: 365b 11d6 25b6 92bf d76e 3392 aa2d 94bf
00000270: a824 a7fb 7b49 903f 408a e1cb 8864 8ebf
00000280: efcd 3426 ad6a 833f 896b cd54 61dc 783f
00000290: efc8 cd9b 2283 603f 4662 03c4 3d1a 93bf
000002a0: 5a1a 9be9 e399 963f 5bc2 b2e3 75dc 8b3f
000002b0: 6fe4 b1c4 63a5 773f 7870 b49a 07b6 7f3f
000002c0: 865c 8719 f477 80bf 60f7 3596 1d9b 6fbf
000002d0: ef92 511a 4d41 9cbf 2754 f3dc aac8 87bf
000002e0: 922d 8c6a db35 65bf af7e 5466 6cbb 8e3f
000002f0: 3030 585f 6d18 71bf d8d7 4383 bf03 973f
00000300: f86d 00ab c63d 93bf 7800 2489 db4b 63bf
00000310: de86 465a cfc2 673f bd1f 9268 3bf1 6e3f
00000320: 1fa2 5979 3db6 823f 90d4 acf4 bd67 76bf
00000330: d4e7 d5e9 07b8 753f 704c 0f57 b25f 8e3f
00000340: d698 f226 81e2 85bf c9c1 80f4 c7e9 533f
00000350: ee44 b250 1380 903f 16d8 1be7 2c82 96bf
00000360: a39e da23 4ce2 4e3f fedd 990e 9cc4 7dbf
00000370: 7fae 94a6 2508 4f3f fba3 40b5 50f9 82bf
00000380: 9ea8 8ddf 2615 7dbf dce6 9954 cdcd 6d3f
00000390: 1502 43c0 f0b5 87bf 1549 f060 dc22 95bf
000003a0: e318 7ae5 1333 893f 3dbc fc26 8ba5 77bf
000003b0: a176 11e0 4d28 7f3f b9d0 76dd d963 323f
000003c0: 487c 0d52 808a 4b3f 5937 528a 5954 693f
000003d0: fff8 9193 6ca4 9b3f b74a 7f95 4091 96bf
000003e0: efa1 a90d 6375 4d3f 3795 9ccb 39d2 73bf
000003f0: d98d 27c6 3005 973f 36b0 4366 b14b 8c3f
00000400: 3cd4 1f97 8467 783f af60 780b d4d1 723f
00000410: 76ce fd42 3443 8fbf 127d 9ac9 0202 7cbf
00000420: e237 42ea b915 a43f b0be 071e e590 9b3f
00000430: 4b61 bf32 4f5d 65bf bf52 f3f4 d457 823f
00000440: 4f5c 5615 264c 96bf 9d34 7cf3 2335 9e3f
00000450: 803f 458f a167 96bf fc4d 9c70 5ddb 963f
00000460: 867b dc6b c942 38bf b734 dbf1 9bdc 613f
00000470: 542e ae28 0c4c 8cbf c2c8 ff15 920c 94bf
00000480: 43fd 4452 60b1 84bf d0bc b3f8 daaf 323f
00000490: 84cd 8b0a d3a8 87bf fb85 9290 8873 53bf
000004a0: e5c9 dddd 17c2 7dbf f0aa 6c63 4b49 9d3f
000004b0: 4d52 f412 002c 993f 2b55 c7b9 68dd 91bf
000004c0: f5b5 2046 2761 893f 70b6 ccef 73fc 96bf
000004d0: 130d a067 3c67 a4bf 9265 184d 59e9 74bf
000004e0: 2fc9 df32 e1ea 63bf a3e6 cfe7 6211 943f
000004f0: a457 2ea5 9293 73bf f581 0e59 b720 8d3f
00000500: efe7 ce66 345f 8fbf fc87 204a 0ade 76bf
00000510: b7b4 e432 8faa 93bf cd6d 22b9 1c6f 4e3f
00000520: 28df e921 7d99 873f f254 f808 ddf1 66bf
00000530: a1d6 8731 6208 90bf 5203 825d d12e 873f
00000540: d537 1dd1 546f 7bbf 346c c8a5 91b4 663f
00000550: afc0 4c44 06bd 843f 43d5 8eea ad1b 793f
00000560: 3b3f 4ad4 e104 78bf 00c0 d581 7426 a4bf
00000570: 1a7d 0caa fb40 813f ca4b 25d8 ae6c 34bf
00000580: 67c9 3a0f 0ba1 84bf db1d 94db 2d74 693f
00000590: 1595 b0bf 3d86 7a3f 4f22 7350 681e 5ebf
000005a0: 3732 496e cea1 9a3f 038e 0888 31f9 693f
000005b0: 1b8d 1043 9e7b 93bf 499b 2065 772b 8b3f
000005c0: 5878 0b77 e69d 91bf f38d 3fb0 da59 66bf
000005d0: 273b 486e bf55 a03f 2b81 af58 ff60 94bf
000005e0: 6f56 5cf7 7d54 9d3f bc4d f81b b005 9dbf
000005f0: f57e 9e07 85d7 7b3f b8ef 775c ea79 a03f
00000600: dd67 9601 97d1 96bf 5777 1455 c2c4 743f
00000610: a2ea 9bea d7f6 89bf fdc4 b1f5 9379 9abf
00000620: 3a95 f100 f92d b23f 43e5 609c dba6 933f
00000630: b4a7 03dd e7ed 27bf 781c f28c a758 a03f
00000640: a2c0 11d6 7e90 a1bf 291e 2f1e 2ecd b63f
00000650: a356 2a34 aded 98bf 41f1 edea c481 75bf
00000660: 004b 8d42 cf0c 86bf c98d 9c50 c8cb 99bf
00000670: 6c97 7579 d37b 903f be70 6df6 848e 95bf
00000680: 63fe fa03 3a5e a4bf adff e2ea c1a3 913f
00000690: d023 1ef8 928f 893f 56d9 1c77 4f03 92bf
000006a0: 96c9 662e 8800 843f a92f 2503 16d3 b43f
000006b0: 0f22 ae00 ea4d 9d3f 8539 aed5 16b2 a4bf
000006c0: 24f3 8ced a41f 913f 1f05 7e0e b43a 9abf
000006d0: 26da a746 1e71 b3bf aa57 c76d 0127 8abf
000006e0: a92a 8272 b6af 96bf 64d5 624a cb23 ae3f
000006f0: 1312 9eb6 640f 5dbf aa50 e43e 1223 6b3f
00000700: d389 0b86 9a1f 8bbf 23a7 782e 46c8 863f
00000710: f209 253f 899f 8fbf 4c6c 2751 ffe2 763f
00000720: 8071 c2ee 7168 7e3f bc55 3ff6 2cf8 48bf
00000730: f67a e421 0b55 a2bf 1e90 8af8 41c2 813f
00000740: f9db 28f4 de6e a7bf 2f28 89cf 572b a3bf
00000750: 3762 2552 2bc4 a13f 6505 238e c137 7cbf
00000760: 4c56 fc3f f8cb a6bf a42d 8368 6992 a1bf
00000770: 13d3 4530 305e 99bf 7f93 f59e 637c 94bf
00000780: f260 82e0 6213 9abf d945 1cbe 511e a6bf
00000790: e0d3 b422 c233 a2bf c411 7ffb 8aa4 68bf
000007a0: 1e7c 685a 501a 68bf e1da 3196 dc61 6ebf
000007b0: 34f8 bb1d c3b8 93bf 4d24 47d0 a9b2 74bf
000007c0: 2e13 7693 3de3 86bf ead7 e7e1 0005 573f
000007d0: d0b3 b8b0 bf54 a93f 02a0 884a 206b acbf
000007e0: dd18 f041 5e47 80bf bd8b 24ea e2f2 a1bf
000007f0: e76d ea64 d2a6 683f 6921 7eb6 9b5b b43f

W2 f8 [64, 10]
0.17390680132960826 -0.11022529933221356 -0.06601451064343154 0.031118730765472873 -0.34068021536587617 0.053031879674361855 -0.20378907462759088 0.10978797438217795
0.13455823827076444 0.1597352398101375 0.27324152160224524 -0.14596049566047453 -0.24272089352376075 -0.0201398797646632 0.0004656998755103133 0.021969108868147593
0.17815504970454227 0.10761503072309149 -0.08774528377275828 -0.08707492401118004 -0.08870365112387356 0.07043013898210931 -0.07026432117502938 -0.18681120655435618
0.11935313935651386 -0.19718119537451126 0.0009489558028249304 0.30403414405012746 -0.09629084918375057 0.13155198662475484 -0.07898095180667221 -0.13892473884790874
-0.11260814455795545 -0.005496790072359912 -0.40522172017917785 0.3633524571582605 0.2713309554867611 -0.026529614020799855 0.13712718642137894 -0.017496688863765767
-0.30821650850564486 0.012133479804548635 0.26342459210514096 0.18066846635029693 -0.08693401826141657 -0.10311876394129074 -0.06874854637559984 0.3926830417174243
0.041705674568564145 -0.3123794785429661 0.09433088418973706 -0.04986886207709653 0.14883306325937778 0.09267728530568232 -0.15622408569133958 0.21327224775172315
-0.14055630945710346 -0.10877739027925765 -0.19602876423016347 0.052387075645495176 0.1419009491876326 0.34008126544433775 0.24610897969727033 -0.0365698505458177
-0.08504399779579754 -0.03509821410664983 0.0388356912702503 0.06967459331751502 -0.3509010523565392 -0.3296942141737287 0.09583634573155353 -0.09647776109232249
-0.44901760448844275 -0.22357001514118038 0.18224885022644463 0.1455782380918742 0.08699161211879661 0.1363176519022251 -0.03557963698405615 0.1736243282814449
-0.12845780608469706 0.06157731366114084 0.11515968746299671 0.19584736344963213 -0.00419423534225546 -0.16336806196377565 -0.14385283438680024 -0.1733008147038024
0.13643100419420795 0.12622061940867735 0.008206788973864907 -0.09801153946258198 0.1692307259134876 0.09906213245803265 -0.25440136908205224 0.017887906148564153
-0.209135625379645 -0.052372352920970866 0.16793237180840173 0.14055070867122937 0.25222842698723125 -0.18474483741455064 -0.10703570770921106 0.05344982762701651
-0.30747901300992614 0.26324708941155095 0.07570534114522497 -0.046727706669512245 0.12481420015998135 -0.1172457202194149 0.010407763268167785 -0.0047571483685475485
-0.016718265597015596 -0.006676929396535455 0.010645656344692677 -0.005521500316571393 -0.029626454121088323 0.015477784745256185 -0.0027868606506800467 0.0069017560024448605
-0.022870504111076516 0.08569858836627044 -0.0958422225264816 0.28614893813767006 0.0002816992677898086 0.11997700448706143 0.00020510408190740117 -0.12847604945657592
-0.17502976618829852 -0.09636230463225419 -0.01566163347609677 -0.044052044471990855 -0.16638304539167342 0.1662395644247831 -0.0563821628519703 0.15314131961997132
0.05508139482038661 -0.2109787470413476 0.1377862812948479 -0.052244643047567284 0.03405747041296598 -0.007222045281941196 -0.016452120667109032 -0.01774514992187171
0.005352916542989228 -0.020247575479262574 0.004492066613084636 0.010003804007381703 -0.02654735473823983 0.010940781246837915 -0.055887975332830776 0.24365330583531397
0.17752512880746055 -0.16031911442200203 0.13399568448378962 -0.1757832947888457 -0.19664541439553654 0.08921589391395833 -0.11800128429125695 0.032296490015666986
0.1158656505829593 -0.1599872929040611 -0.04519552045201643 -0.08301384025869568 0.22624892158008855 -0.041310474928904245 0.23896827116793973 -0.1326016060969187
-0.21418023688499127 0.0984677177496057 0.014243988027562344 -0.06029871183065358 0.06334922835448017 -0.10955989045147484 0.1615748530847061 -0.03457896895769877
0.07624531777020653 -0.20332528657110707 0.13293465887172168 -0.07604605596093465 0.12362649095469971 -0.2812886244044322 -0.09449270037921702 -0.11061575531875988
0.061840604262147054 0.07326851099770325 0.22610416520828486 -0.1760026818739613 0.100884967732525 0.10958520165627747 -0.009104465202068866 0.0282356088039267
0.0685760039909072 0.2278012188124937 -0.10528587028683774 -0.12213999244459918 -0.011210329557104912 0.3150254918404512 -0.08894086632200554 -0.2580722469336292
-0.012141433112038373 -0.0004612854919198838 0.0021286273493816366 0.0015977447131888187 -0.0009221573681233462 -0.0007098947367842774 0.013011689706545895 0.01529342820120382
0.0006994272203523911 0.02816720653004799 -0.10505110639965698 0.11604340604590181 0.2626057179614979 -0.11086404059520748 -0.18365425602666927 0.04024368563201997
0.2686618237440281 -0.21583482181868716 0.0009301435868269154 -0.03022150801395204 -0.006504734800534279 -0.17763652823930232 0.11553850515468644 0.1630711019357048
-0.08535929356420527 -0.023417984010904447 -0.19220727582239389 -0.0697099489910895 0.1784872690472779 0.08555015134540431 -0.06437132884113342 0.07762708794678838
-0.1693861769675134 -0.046954502405096306 0.1311996402868979 0.016374773833478982 -0.10611839440800101 -0.06584852551011597 0.16322208676990135 0.10248368369315818
0.10700171227924501 0.08444930749768305 0.1313768396235738 -0.12914737219845732 -0.16625811159589182 -0.06637185010107952 0.10814080724080352 -0.022626990654852384
0.253084024422455 -0.292571235935178 -0.0029846691614055613 -0.0024100885359694874 -0.005535410616038341 -0.20657699991722972 0.021257103019741538 0.19910478066586396
00000000: 159e 21fc 9342 c63f e6db d2a7 b937 bcbf
00000010: 3f65 46b4 53e6 b0bf 9b12 b9ab 96dd 9f3f
00000020: d100 d963 b4cd d5bf a18e b199 fe26 ab3f
00000030: a45f 67a9 c215 cabf a32d 778f 101b bc3f
00000040: 29e1 6350 3439 c13f c16a 804f 3472 c43f
00000050: 0c38 cc01 ca7c d13f f051 af61 d5ae c2bf
00000060: 16c7 de6d 7a11 cfbf f207 bd73 8c9f 94bf
00000070: bc6b 2dbc 2585 3e3f d79e 71f0 117f 963f
00000080: e693 0ce0 c8cd c63f b582 839d a88c bb3f
00000090: 0aa7 2e94 7976 b6bf 0b01 eece 8a4a b6bf
000000a0: 77e2 9c50 48b5 b6bf 7cb5 94a7 b507 b23f
000000b0: 73bb 85b1 d7fc b1bf 7ab0 56fb 6de9 c7bf
000000c0: 6b0e 3666 ed8d be3f ef85 c2c0 3b3d c9bf
000000d0: 69cb b911 6b18 4f3f 7702 64a0 4b75 d33f
000000e0: 7bf5 2560 84a6 b8bf b379 230c b2d6 c03f
000000f0: 8140 047d 1838 b4bf 8a82 fa2c 49c8 c1bf
00000100: b2c0 232a e3d3 bcbf f10d 8059 cd83 76bf
00000110: 8319 f314 27ef d9bf 409f 1aaa 2a41 d73f
00000120: 0851 0d83 7c5d d13f 541d 6142 942a 9bbf
00000130: b641 8936 628d c13f 4128 d5e9 a6ea 91bf
00000140: 869e 07bc d1b9 d3bf 56e4 9317 70d9 883f
00000150: 2770 03d2 f2db d03f e24d 32f1 2420 c73f
00000160: f9b7 57cd 4e41 b6bf 7256 bbc6 fd65 babf
00000170: 6bab 5436 8199 b1bf 64b0 770d b821 d93f
00000180: 95c1 a838 725a a53f 1026 127f 06fe d3bf
00000190: d401 999e 1126 b83f 5373 6b57 6988 a9bf
000001a0: 7a9a a139 f60c c33f c14f 78d5 b2b9 b73f
000001b0: ab26 729d 26ff c3bf c478 9e48 814c cb3f
000001c0: faae 2ec8 bffd c1bf fc2b cbc5 d5d8 bbbf
000001d0: f8cf b875 7817 c9bf 42ce 4291 7ad2 aa3f
000001e0: 6f20 0470 cf29 c23f d934 4436 e4c3 d53f
000001f0: 3d9e 86c1 7f80 cf3f 6a50 3a90 48b9 a2bf
00000200: 3109 4185 71c5 b5bf c2dd 78a3 64f8 a1bf
00000210: dcb7 d88f 45e2 a33f f82b a9b3 31d6 b13f
00000220: 6336 00b0 2975 d6bf 149f e3c2 b519 d5bf
00000230: 6867 af12 bb88 b83f b5cd ae3c c4b2 b8bf
00000240: beca a655 b4bc dcbf 61e4 b237 f19d ccbf
00000250: 2b64 ba29 ee53 c73f 5094 cec5 4ea2 c23f
00000260: b298 1311 1545 b63f 10cf 6458 db72 c13f
00000270: 9909 8082 7e37 a2bf 7f1f e16d 5239 c63f
00000280: 095c 062e 4e71 c0bf c144 b3c8 0f87 af3f
00000290: 6c9d 78f3 1a7b bd3f 4b12 83c2 8611 c93f
000002a0: db05 077a f92d 71bf 6133 aca1 3ee9 c4bf
000002b0: 3a69 9009 c569 c2bf 3ff1 c299 b82e c6bf
000002c0: 0c58 9636 9276 c13f 0477 384c ff27 c03f
000002d0: 25bf fb91 b8ce 803f ce55 9fc4 4817 b9bf
000002e0: 2a6d a338 5aa9 c53f a9e4 2dcb 225c b93f
000002f0: 6af6 10ae 1c48 d0bf fba5 9b0f 3551 923f
00000300: 0790 b7c7 f4c4 cabf 1031 058e 8cd0 aabf
00000310: 8dab 6dd6 ce7e c53f 3e16 96cc 90fd c13f
00000320: 1407 42b3 8224 d03f 4971 6605 b8a5 c7bf
00000330: c482 1d30 b166 bbbf 1a0e 459b c65d ab3f
00000340: 1d60 4574 bcad d3bf 128c f251 0ad9 d03f
00000350: 77ec 59dc 6c61 b33f a6de eca7 b1ec a7bf
00000360: e875 c3cb d2f3 bf3f e637 f0c5 d003 bebf
00000370: 63ec e356 aa50 853f e760 a44a 3b7c 73bf
00000380: 1baa f0cf 971e 91bf 3048 5596 4459 7bbf
00000390: 2660 c2ce 63cd 853f 006d 8d74 b69d 76bf
000003a0: 9ea2 2fae 6556 9ebf 40fc 5c1a d1b2 8f3f
000003b0: 5040 4d6b 78d4 66bf c22c 0c05 0445 7c3f
000003c0: e6e8 cc8c 5d6b 97bf 11b4 58ba 57f0 b53f
000003d0: ebc2 53ab 1d89 b8bf e887 c5a2 4350 d23f
000003e0: 948b 7824 2176 323f e341 8b1e d0b6 be3f
000003f0: de4a eca5 26e2 2a3f 661d 5e37 e771 c0bf
00000400: 7279 cd18 6067 c6bf e374 f632 33ab b8bf
00000410: adbc 536e 9a09 90bf d184 a854 fd8d a6bf
00000420: a676 4825 0a4c c5bf b6bb 408a 5647 c53f
00000430: 82cd 0d73 1fde acbf 478f b77f 229a c33f
00000440: 8a45 beea a033 ac3f 59c9 5801 5a01 cbbf
00000450: 9bd9 ff19 fba2 c13f 139d 8f52 cfbf aabf
00000460: e962 3713 fb6f a13f 381b bd04 dd94 7dbf
00000470: ab3d dc20 d3d8 90bf c1e7 4eda c82b 92bf
00000480: a77f d897 f0ec 753f bbe2 06ca c7bb 94bf
00000490: 6a4b 1df3 4566 723f dbdd 60d8 df7c 843f
000004a0: 518e 95d1 3a2f 9bbf acd0 2ecd 1e68 863f
000004b0: 859c 9644 599d acbf acfe 0f12 0830 cf3f
000004c0: 151e 39b7 24b9 c63f 02df ae34 5685 c4bf
000004d0: 8cdd 5445 c526 c13f 5c8e 2627 1180 c6bf
000004e0: 795c de4b ad2b c9bf c7d3 a452 dad6 b63f
000004f0: 0cbd ea08 5535 bebf 9927 c960 2a89 a03f
00000500: 7acb fb0b 5fa9 bd3f c035 66af 767a c4bf
00000510: 9ac2 8804 de23 a7bf 7cc6 0621 6540 b5bf
00000520: 3b8b 7883 b9f5 cc3f ec8e 9a85 a526 a5bf
00000530: c856 b926 8396 ce3f e3aa cae4 16f9 c0bf
00000540: da6e 6f0c 426a cbbf b641 722b 2e35 b93f
00000550: caa7 f1b5 f32b 8d3f 8c6f 9b06 79df aebf
00000560: 5663 02b0 a737 b03f e742 71f2 1d0c bcbf
00000570: a86a ed1a 7cae c43f 84fd 9aa9 55b4 a1bf
00000580: 73d1 4b2a d084 b33f e9e8 2220 9006 cabf
00000590: 6ef2 2dbe 0004 c13f 538d 571b c177 b3bf
000005a0: 3ad6 9157 fca5 bf3f 8172 a300 a200 d2bf
000005b0: 1be7 d671 ac30 b8bf 8f33 846b 5051 bcbf
000005c0: 79d9 bd59 92a9 af3f f7ce 8fa2 b9c1 b23f
000005d0: 268c 8735 fbf0 cc3f 2017 5481 4187 c6bf
000005e0: c2b7 11e5 98d3 b93f 3e41 3d99 c60d bc3f
000005f0: 7fda 52a2 5ca5 82bf d801 95a1 cbe9 9c3f
00000600: 756a 6e6e 328e b13f dcf0 6420 9728 cd3f
00000610: cde4 9cc9 03f4 babf 414f 1509 9144 bfbf
00000620: 12e7 99f6 70f5 86bf 7d1b 37ae 6029 d43f
00000630: 1484 2120 d4c4 b6bf 7c73 2575 4184 d0bf
00000640: e967 2491 9bdd 88bf e01c 171a 163b 3ebf
00000650: 921b 3b1b 0e70 613f 6099 9752 6d2d 5a3f
00000660: 130a 72de 9d37 4ebf 96af cb56 0743 47bf
00000670: 4ee2 0a6e dfa5 8a3f 7b3f be2f 2952 8f3f
00000680: 7cbe c784 38eb 463f fb05 773b ddd7 9c3f
00000690: 1828 651a a1e4 babf 6933 e249 05b5 bd3f
000006a0: 6ec8 9836 88ce d03f 3fa9 a8f4 9561 bcbf
000006b0: cbef b38f fb81 c7bf 91ef 5103 d29a a43f
000006c0: 2b84 aa5c c131 d13f c74d 86b6 79a0 cbbf
000006d0: 06d6 9b24 9c7a 4e3f 3710 3912 63f2 9ebf
000006e0: 1496 cc73 b5a4 7abf b46f ae33 cbbc c6bf
000006f0: 606f 1175 ee93 bd3f c246 de8c 83df c43f
00000700: ba96 444e 1bda b5bf 603f dc4d e2fa 97bf
00000710: 7aef da7d 3f9a c8bf ef5f 1fdf 82d8 b1bf
00000720: 92bb a7bb abd8 c63f c644 325e 9de6 b53f
00000730: 0238 2cb0 a37a b0bf 4ee2 036c 5edf b33f
00000740: f226 3c3d 72ae c5bf d9ad 75a8 6b0a a8bf
00000750: 84bc 235a 26cb c03f 0673 6078 8cc4 903f
00000760: 4b84 7c39 932a bbbf ee46 8eef 72db b0bf
00000770: 54af 541a 76e4 c43f eff1 d5e5 5e3c ba3f
00000780: cef8 dad6 7664 bb3f 5d55 df45 789e b53f
00000790: 834a d1ce f4d0 c03f 9975 faad e687 c0bf
000007a0: a6e1 ff1f f247 c5bf 8224 8fdd befd b0bf
000007b0: b658 76ae 1daf bb3f 395b 7aa3 872b 97bf
000007c0: 6735 0256 8732 d03f 84e1 85b4 7cb9 d2bf
000007d0: 98f4 000e 4e73 68bf 2d94 286e 52be 63bf
000007e0: f694 0d79 4cac 76bf b609 6079 1d71 cabf
000007f0: 0f27 1c09 6cc4 953f 2af4 b7f4 437c c93f

B1 f8 [1, 64]
-0.009464135175879533 -0.00624582690675023 -0.006325053560746972 0.008672092511056247 -0.003986964261359713 0.001881724843029491 -0.0010203765138049356 -0.004417705042373574
-0.008700176659917316 -0.007056133105141251 0.0062975039700118455 0.00017890915693788257 -0.00281534007488032 0.0016384115948740797 7.182937515832561e-05 -0.006514758160317146
-0.016300739448442274 -0.0028916664573554046 -0.0105720311451551 -0.024511219100954013 -0.00011424863948510308 0.01379874690421712 -0.007769168673894103 -0.005069357769965311
-0.009935907081059566 0.007051686926791017 0.022165776639161427 -0.00613352658948025 0.003490180003169777 0.014306611491550079 0.0013532576825447619 -0.0024238515893006476
0.0024196730794723495 0.01376930154908939 -0.004432370177333749 -0.0003802516817704265 -2.3406951081432264e-06 -5.560145679415144e-05 0.0021922119806253733 -3.593175801053985e-05
0.00341724159530088 0.015688805012166688 0.000911704075737747 0.00603114473118537 0.010251521063619201 -0.005330933058739842 0.004304874984074177 0.004990857787454986
0.0016411492021768711 -0.011866411790135103 -0.01570010547518381 -0.00011147135124403973 -0.0019744984895435683 0.0024412598610236047 0.008678236306561251 -8.001060567018264e-07
-8.277578333991392e-05 -0.003452351908591752 0.0017486249428788543 0.014884829283375409 -0.0012812874644411935 0.006172469272822789 -0.0016024192803721147 -0.01815834936777878
00000000: 89c9 85b8 ee61 83bf f4c4 d064 3995 79bf
00000010: 7e8e 05a3 4ce8 79bf b171 c88d acc2 813f
00000020: 1747 ce91 a254 70bf afe5 4baa 86d4 5e3f
00000030: 0ed6 68f0 c4b7 50bf 64ca e2aa 4c18 72bf
00000040: 8e46 caf1 65d1 81bf c2ce c34e e4e6 7cbf
00000050: 91e5 8f59 69cb 793f c3d3 bcf4 3173 273f
00000060: 7830 8f31 3210 67bf 9f69 e90d ffd7 5a3f
00000070: 9c52 cf44 63d4 123f 32ad d613 38af 7abf
00000080: 0ba3 531b 24b1 90bf 2063 b09b 43b0 67bf
00000090: e576 2a00 caa6 85bf 45db b111 7819 99bf
000000a0: 912c 49ae 18f3 1dbf 0166 6f75 8442 8c3f
000000b0: 0398 f155 90d2 7fbf 81ef 565d 9bc3 74bf
000000c0: de03 c1df 4659 84bf 6c15 b7cb 3ae2 7c3f
000000d0: 43c6 0517 a0b2 963f 4882 c601 781f 79bf
000000e0: ba86 101f 7097 6c3f b243 c8e3 c84c 8d3f
000000f0: 6773 555f f92b 563f 900f ce69 2fdb 63bf
00000100: 307c c917 6cd2 633f 7c9f bc5e 1433 8c3f
00000110: 5f60 494f ad27 72bf c184 9689 90eb 38bf
00000120: 0093 86be 9aa2 c3be d6b2 2182 b326 0dbf
00000130: 23eb 67d8 66f5 613f 5d84 e9cd add6 02bf
00000140: 0180 9e9c 79fe 6b3f 9126 c3e1 b910 903f
00000150: 70a5 2e98 eddf 4d3f f6cf 0b16 1db4 783f
00000160: 1db8 9edd bffe 843f d0ad 4f72 e3d5 75bf
00000170: 09c9 5114 fda1 713f 6a21 9e2f 4b71 743f
00000180: 935c ad89 7ae3 5a3f a8da 79d4 6a4d 88bf
00000190: d318 3d3e b013 90bf 2749 6d3b b738 1dbf
000001a0: 0bf0 08ce d22c 60bf e9c8 7368 b1ff 633f
000001b0: 2e37 fd28 e5c5 813f 1237 5ad3 dbd8 aabe
000001c0: fc3b 1f21 fdb2 15bf 457b 5551 1b48 6cbf
000001d0: da1f 54bc 43a6 5c3f 7841 d4f7 ef7b 8e3f
000001e0: 634f 6bf0 1bfe 54bf 8df0 989a 4d48 793f
000001f0: 9edc d599 0841 5abf f35d bc32 1a98 92bf

B2 f8 [1, 10]
-0.05696116732870253 -0.04219267480954895 -0.04543751208701624 0.000421493005627342 0.028376030752892082 0.05393107478717893 -0.03852873380443383 -0.04743984485883749
0.12941646663551182 0.01841486770732617
00000000: a634 a39d 032a adbf 2524 e03c 479a a5bf
00000010: 18c6 d9e8 9543 a7bf 16a9 b6ac 7a9f 3b3f
00000020: a1bc 4b30 9b0e 9d3f aceb e594 da9c ab3f
00000030: 27ec 4ac7 09ba a3bf d55c 640c 094a a8bf
00000040: 0ab7 e101 b890 c03f c8a5 40da 58db 923f
