weights.npz (npz, 81042 bytes, 6 tensors)

filter1 f8 [3, 3]
00000000: 90b4 3da0 4051 e53f d4a8 6430 150a ee3f
00000010: 055b 7dad d2a0 e33f 3fcc ad2f b994 e33f
00000020: 62f3 668c 1253 e83f 6df1 b0a2 6090 df3f
00000030: f138 c034 121e e73f f794 d144 64dd e33f
00000040: 7425 b0a1 a082 d13f
0.6661685113628142 0.9387308068446836 0.6133817089529151 0.6119047099331353 0.7601406805257336 0.493187102201566 0.7224207906999977 0.6207753509630994
0.2735978678689073

filter2 f8 [3, 3]
00000000: 098b 4e4a 0103 b43f b2f5 6b95 d359 e83f
00000010: f62e fc07 5109 d53f c079 2ab5 7e53 e53f
00000020: 9a73 162a 7f2a eb3f b1fd 553a 595f f33f
00000030: 3d04 96fa b6a2 ea3f 038b f63f 2d4e d13f
00000040: b45a 3ec8 6320 c73f
0.07817085327273444 0.7609651487725186 0.32869363574785326 0.6664422548672562 0.8489375898385447 1.210778453707331 0.8323626417405944 0.27039653059380003
0.18067595746534482

W1 f8 [144, 64]
00000000: b73a 737f 8f49 83bf 4386 67da 5ea2 733f
00000010: fb6e b19d b1f6 693f b81b 5159 f1b9 49bf
00000020: b291 430c 1fd5 96bf 5d59 7bb5 3304 393f
00000030: 5fae a123 54fe 6f3f 95e0 a85d 0d41 8cbf
00000040: 79ae 525d 1146 813f 8300 8b66 d3f4 6bbf
00000050: e02d 086a 66fb 8c3f 00fe 23d2 8ea2 7dbf
00000060: a96b cc87 c600 753f 56e2 265f f91b 88bf
00000070: 9cfc ae26 9280 58bf 6d95 5392 4e7c 4b3f
00000080: 2e2d 5ae2 1c0a 6b3f b42e c8f6 54a9 8cbf
00000090: 1c2e 3944 7f62 723f 0296 db4d 1c83 92bf
000000a0: d8ef 6c25 1027 60bf 65d1 77ea 6129 913f
000000b0: 8df7 a7ef 078d 4dbf 8e7f f552 2092 233f
000000c0: 1f67 181b 3527 783f bb3e 696b 0d83 973f
000000d0: 579c c14f 770e 433f f5cf ac97 7740 61bf
000000e0: 7f80 e6be 9f5a 61bf 6722 33c7 86d4 6dbf
000000f0: 0b5b 114b 6a7d 9abf e690 923a 3d71 433f
00000100: f938 86a7 3cab 6bbf d88f 6e06 6d6b 66bf
00000110: a98b 1bcd f041 6dbf d75f 2e97 98b3 96bf
00000120: 52d9 40ea d93b 643f 3ead c3e2 0f78 83bf
00000130: a7bb 0710 4576 82bf 3f95 72c5 ca69 80bf
00000140: fec2 5080 10bf 96bf 57c9 2ff7 e445 13bf
00000150: c21e c4cb 9341 573f 39c1 8bde a3ef 8abf
00000160: 54f1 a76a 53c3 6d3f 66c6 3e2a 1bff 513f
00000170: 5c22 acb2 8217 7abf 9f2b 2a22 2917 80bf
00000180: 4272 bdbb 41d3 77bf 369d 6242 52c1 81bf
00000190: fff7 07e3 9f18 833f c639 f9ff 9b91 7e3f
000001a0: 5bd8 53bb 5e61 8d3f 95ca 5751 4b7d 85bf
000001b0: d5bc f44f 2f4a 7b3f a94e 13b7 b141 8d3f
000001c0: 3afd 659f 88e5 7fbf 2858 3d0a d90d 82bf
000001d0: 3b19 52a7 f551 94bf c728 e7d7 930b 6abf
000001e0: b14b d366 67cf 653f a04e 016f 5755 93bf
000001f0: 4a9b a853 a56b 293f 676d f99d 0eb5 6c3f
00000200: 9bcd 0215 1979 7bbf 4f21 0412 41ef 943f
00000210: 4010 fe30 47fe 803f be4e ef6d 9472 853f
00000220: 9b17 b1f5 d3b1 513f a6c5 8061 e029 6f3f
00000230: 8d8c f727 2305 83bf f5e4 f40c 8996 88bf
00000240: 7642 5676 56c7 613f d1db 267b 969d 8a3f
00000250: ba6c 88c1 4ae3 803f f682 b4d3 4a31 363f
00000260: 778f 9f62 0db3 7cbf 582a cb7a 941a 843f
00000270: 438c 2280 1692 853f 8967 dd6b b4e9 803f
00000280: fad8 533e d3fa 92bf 1fa8 ae48 d8c0 623f
00000290: f0f3 3388 f146 9a3f 6d78 051a ab4e 7e3f
000002a0: 1836 4d18 5360 80bf 9778 fefd ea31 6a3f
000002b0: 7798 3475 85e0 5dbf 717d 409d a8d4 5c3f
000002c0: 400c f627 acb4 7a3f 3b35 e8cc ee16 7ebf
000002d0: be06 6335 bc6e 7fbf 237e 796c 3b1a 643f
000002e0: 5b07 f350 c102 47bf 5f2e d876 968f 87bf
000002f0: 221c 9c67 42a6 95bf 6654 218d 3be3 923f
00000300: d0cd 791d bbf8 873f eb3d 0c6c 0cad 543f
00000310: 1cb5 f10d af03 64bf 3ba4 bf83 cda4 443f
00000320: c426 4b62 3133 903f 3731 64b5 c2d4 89bf
00000330: 5533 a74a e9b9 5b3f 545c 0f0e 2898 733f
00000340: 9e3c 7897 1926 68bf 99f1 e32c c534 6dbf
00000350: ab41 53da 1a2b 86bf 96dd 2e31 b0f8 803f
00000360: 3f27 c1c8 dcfb 843f b814 c89c 1545 65bf
00000370: ae4e 35eb 7d3b 733f 3d07 38dc b91c 89bf
00000380: 5340 4330 0eb0 673f c5d9 e22b d415 6b3f
00000390: 4ec2 cd30 f87e 543f 3fd2 3e83 c8a3 62bf
000003a0: 5f3b c22b d2f0 4abf a61b e033 8c25 723f
000003b0: 7479 60e4 9ad3 7d3f 6a23 5e47 5a9e 7dbf
000003c0: 50bc a18f e643 8dbf 21a1 ac4c 8c89 8bbf
000003d0: d081 740d 3fb1 5ebf 9202 c30b 23f9 8f3f
000003e0: adbc 5a50 850a 313f 0bc4 4780 1877 90bf
000003f0: 4515 fed1 b6a9 783f dbf2 fdf4 192e 933f
00000400: af71 387c cadd 7fbf 779f b619 38b7 88bf
00000410: 5af8 836f bc00 6cbf 03af 14af b0dd 9cbf
00000420: 5b51 a590 9425 7dbf b9d3 0b10 a0b8 90bf
00000430: 9471 beb0 01b9 70bf 667b 3c46 69b2 773f
00000440: 5f04 4018 5f6d 7b3f 56a4 b2cc 3162 7f3f
00000450: adfe a327 4497 943f cf18 472a 6d16 833f
00000460: 501e ac6e b3f3 7d3f 2830 7b84 8efd 623f
00000470: 3daf 29ca 4feb 853f 316b d1a4 974a 703f
00000480: b61e da71 2ace 94bf 3b9c 21ee f0c8 703f
00000490: 501e 686f 110a 883f 92f6 ec26 53b6 663f
000004a0: 9daa c907 a551 7ebf f395 c92d e5c6 80bf
000004b0: c651 1dc0 246c 813f 0c6b 3efe 88d4 783f
000004c0: 8c6f 87f1 8fb2 7ebf de76 8447 be3b 78bf
000004d0: 77fa 8446 c0ea 443f 83d0 5550 88fe 723f
000004e0: 55b6 af99 ff20 833f e54e 2481 b210 97bf
000004f0: 9768 2371 def1 8fbf 5279 c6b5 948e 753f
00000500: 5a3f 6c93 7077 753f 8973 88af 9d3a 7fbf
00000510: b6bc 42d7 62c8 4d3f a7ff 11ce 2dd7 6ebf
00000520: 07b9 8799 ba7c 523f f56e e8a8 6a2b 703f
00000530: 278b 2c98 8065 8f3f fc90 0691 cee9 64bf
00000540: 638d d7a2 11b2 853f 141a 3e23 7a9a 79bf
00000550: 4d80 dfde 8d80 50bf a4a8 cdcb 6f09 3fbf
00000560: d9e7 52d9 019c 4abf 22c7 5a22 7da7 513f
00000570: 1887 e107 94c2 93bf 1fd3 10d8 a0c3 90bf
00000580: 52e7 1f95 5c52 9a3f b012 3fb2 1c42 903f
00000590: d027 1322 9aa5 763f e2b2 663b 3620 743f
000005a0: 298d b5a6 3734 8bbf 841b 76e8 cae0 743f
000005b0: cd36 696c 7159 7c3f 0bcc 5e48 54af 3dbf
000005c0: 8a9b 138b 8040 693f 20ea 15ec 3379 6bbf
000005d0: eee3 de3a de11 83bf 468a 9853 5bf0 70bf
000005e0: 330d 83cb 209a 913f fa3a 2aae b30a 503f
000005f0: 30c7 8e9b 94be 78bf ea10 8d51 8088 613f
00000600: 79fe b290 0649 833f 71ba 3d82 b9ae 793f
00000610: c503 e0ea e1f6 6d3f bd1a 2fa4 78d4 703f
00000620: 1bf3 7516 8d27 613f a6c4 4497 9e38 18bf
00000630: 39dd 21d8 464e 633f c09e 178e 82d6 45bf
00000640: 3e89 303c 1a98 713f 0349 990d c36d 9c3f
00000650: 2319 76d9 6d65 93bf 9fc0 4950 a0f2 80bf
00000660: 146d 1895 acb6 89bf f25d 7c4f bb9f 763f
00000670: ee85 3edb 771b 213f 6cce aaeb f932 72bf
00000680: 8ede d0d4 644f 913f 40be 9bb7 feec 503f
00000690: aa50 5ef0 0002 65bf 9f6b 278f ea3f 8c3f
000006a0: e819 4ff0 2e85 98bf 6d75 9a3c a026 583f
000006b0: b53b 6aef 4417 663f 97c4 bb59 3e81 913f
000006c0: 4c66 d4a4 3973 913f 15c1 ac81 696b 883f
000006d0: 2548 c0ca f3d6 8bbf a1f1 eb80 b499 793f
000006e0: b380 b4b2 b9f6 84bf 2037 62a0 609e 45bf
000006f0: d1bb d318 5425 9bbf 1e47 14ec 73ab 91bf
00000700: 66e6 93dd e663 673f 07b6 c94f 0bf0 26bf
00000710: d01d 6eda 3213 80bf 13d8 4f79 3f59 813f
00000720: 750c ebee 9c5f 583f d7e8 a291 132f 913f
00000730: a599 0c64 004d 753f 25b4 0362 dd72 583f
00000740: 7c92 f5c5 838a 6e3f 8137 c109 8a7b 92bf
00000750: 7244 237b f250 813f 78e7 396e 30b6 69bf
00000760: 1f77 1a28 bf80 72bf 9ef5 9de4 54b1 8abf
00000770: 2269 2239 b0f9 83bf 20a3 29f8 1a62 96bf
00000780: 9527 edc6 dc9f 733f 1249 6ddf 647b 3c3f
00000790: 5d0f 8c6c 7665 89bf 8a83 2248 1df7 66bf
000007a0: 5a83 38aa 48c7 5fbf a5b5 c0e6 109f 013f
000007b0: 3ce3 23cd d9b5 523f 61a5 b6db b067 7ebf
000007c0: e275 300a 4fd3 603f 6781 098b f738 8abf
000007d0: 3f33 43c8 f0cf 80bf 444e 858d 40a3 9a3f
000007e0: b8ed 48e8 922b 873f c6e1 2f3f 46a3 953f
000007f0: 2efa c595 5027 47bf 7195 1ba1 615b 933f
-0.009417649342507202 0.004793520469748072 0.003169390588977692 -0.0007851055585285016 -0.022297368167430505 0.0003817201845611929 0.0039054530471299 -0.013795952244535928
0.008434425030223057 -0.0034126404683264013 0.01415138255199272 -0.007235105413428311 0.005127692708607614 -0.011772106376939078 -0.0014954974419507999 0.0008387931490260577
0.0033007206100756003 -0.013994849950015854 0.004488465437656266 -0.01807827210622826 -0.001971751723798914 0.01675942414836253 -0.000901821971012616 0.00014931339817802726
0.005896766133014513 0.022960862809042065 0.0005815584731977502 -0.00210593564897898 -0.0021184082063002148 -0.0036413795838579513 -0.025869046050810456 0.0005933331459755636
-0.003377550569161444 -0.002736771526047104 -0.003571482004973221 -0.02216947958694945 0.002469945540748566 -0.009506343944358005 -0.009014644195273492 -0.00801428237020707
-0.022213228065257155 -7.352075571967952e-05 0.0014194434471068028 -0.013152389744818126 0.003633177683921721 0.0010984196933176093 -0.006370077647041752 -0.007856675486683616
-0.005816704531608043 -0.008669512415805696 0.009324311366977865 0.007463082670780391 0.014345874873907307 -0.010492885990037318 0.006662545026571117 0.014285457992094424
-0.007787259752489556 -0.008815475106228446 -0.01984390100235454 -0.0031793487134780004 0.0026623744548514784 -0.018880239629949558 0.00019394295834837045 0.003504303502081352
-0.006707284905292178 0.02044393227063895 0.008297496969824292 0.010472449879592612 0.0010799951476356598 0.0038041479529275666 -0.009287142426677409 -0.012005873401550885
0.0021702469554799 0.012995887406629965 0.008246025115161582 0.0003386314089813125 -0.00700669506656825 0.009816322324146018 0.010532546792381697 0.008258256475233388
-0.018534947089357857 0.0022892212195602247 0.02566125291649607 0.007399242749981477 -0.007996224574209385 0.003197630852766652 -0.0018235495852621222 0.0017596861480411975
0.0065199589583953554 -0.007346089185842171 -0.007673964681261301 0.002453914701433539 -0.0007022327353285272 -0.01150434065041067 -0.0211420417536169 0.018444948662665793
0.011704885327367714 0.0012619611081311443 -0.002443162825832913 0.000629997586199533 0.0158202854388836 -0.012612839851975905 0.0016922739256301684 0.004783779587305654
-0.0029478549802273843 -0.003565201862441647 -0.010824403560406667 0.00828683519453825 0.01024601447729234 -0.0025964185827001794 0.004695407743685527 -0.012261821778341559
0.0028915669555332007 0.0033063072179075636 0.0012509750115122955 -0.002275363565752891 -0.0008221651292091673 0.004430339495235558 0.00728188042378829 -0.007231094981656175
-0.014289666422170694 -0.013445945825495688 -0.001873313498272567 0.015611909672203415 0.00026002650006779865 -0.016079314069376276 0.00602122701810021 0.018730550363659098
-0.007779875715212033 -0.012068212780675698 -0.003418319738670167 -0.028189430891116817 -0.007115917522544225 -0.016329289416677748 -0.004082686045788004 0.005785380580873722
0.00669610163095155 0.007662004975977762 0.02010828487345744 0.009320118763650602 0.007312489421344617 0.002318170885564203 0.010702727658290829 0.0039773868166673035
-0.020317710112549313 0.004097882398219228 0.011737953388560346 0.0027724861205616425 -0.00740208115585497 -0.008191862544843586 0.00850704871451392 0.006062064294293245
-0.0074945090095431925 -0.005916350630540383 0.0006383360714961724 0.004637272334878986 0.009340283277164444 -0.022524632579986287 -0.015598047092158658 0.005262928866072452
0.005240859746450466 -0.007624259910269945 0.0009088976498982302 -0.003764714682404208 0.0011283705008469662 0.003947655334311175 0.015330319065076715 -0.0025528940679625505
0.010593545705836765 -0.00625083646799009 -0.0010072122054154587 -0.0004735849322999952 -0.0008120545413909899 0.0010775300992630983 -0.01929694460012063 -0.01637126272926814
0.025704809762806598 0.01587719762734946 0.005529024202766977 0.004913532108201864 -0.013283190512714942 0.005097191438273255 0.006921237049551454 -0.00045295531924266556
0.0030825148211194907 -0.003353692446294035 -0.009311424419012195 -0.0041354720538345265 0.017189514562017293 0.000979114026140314 -0.006041126726744214 0.002140284177956632
0.009416629114979745 0.0062701460300177295 0.003657761807517509 0.004108878379105616 0.002094054758059361 -9.239643060678318e-05 0.0023566611935696116 -0.0006664407230205435
0.004295446854515382 0.027762458519938537 -0.018941608808313092 -0.00827527279872725 -0.012555454540282208 0.005523425752265153 0.00013051832285974847 -0.004443145992513924
0.016904426087619266 0.0010330665085652863 -0.00256443198572683 0.013793785566056203 -0.02394555417756719 0.0014740528880915163 0.0026966425314820194 0.01709458754243495
0.01704111164608539 0.011923622388707625 -0.013593582749340591 0.0062501002237208845 -0.010236216322084912 -0.0006597492035937715 -0.02650958444149493 -0.01725560310757778
0.002855254086736636 -0.00017500055391243848 -0.007849118510207115 0.00847100819553862 0.001487639670515487 0.01678114487069923 0.005200387503271041 0.0014922296468811238
0.0037281583496898123 -0.01804938969171799 0.008455175764910037 -0.003138632384261205 -0.0045173136765279944 -0.013033545710409208 -0.009753586524585748 -0.0218586172071894
0.00479112854993415 0.0004346009513273168 -0.012400555789561169 -0.0028033801946353897 -0.0019396028154760798 3.3610060967563604e-05 0.0011419894186117238 -0.007423106052934032
0.0020538848634845544 -0.012803968363358021 -0.008209115134741317 0.026013382566203683 0.011313579286357775 0.02113065491355017 -0.0007065909845065993 0.018903279741512905

W2 f8 [64, 10]
00000000: 2e5f e26f 1b8f a63f 2f93 a824 c2d8 b9bf
00000010: 2d7e d12a 0c90 95bf 9f19 b020 94b8 9f3f
00000020: 614c 5fe4 5ab2 6dbf 629c 95fb 1a74 b2bf
00000030: 3a93 f9ef ef8b b53f 2cff 6b06 81c8 983f
00000040: b748 daa1 62bb 743f d0e8 a028 4fad 943f
00000050: e83b a455 756c ac3f e27a 07af 0cf0 adbf
00000060: f0ca 64a0 a67e adbf 227d 51ca f628 92bf
00000070: 96f4 deba 29bb b6bf bc57 0516 2c51 86bf
00000080: fb80 2073 b2eb 90bf a138 3bb5 c43d ca3f
00000090: c252 ae1c 1d4e b4bf 87f8 cded 268f b13f
000000a0: 044f d4f2 4e8d 983f 30d1 8de2 9186 a83f
000000b0: 2d57 bede 0f06 b13f 7ece 42d5 5d93 883f
000000c0: 5ea0 1beb fe27 c7bf e66a b57e df40 aa3f
000000d0: 1e02 2365 6876 50bf 2e8b 4b89 5c7c b3bf
000000e0: ae2e d4b4 110a b23f 58de 7357 5061 88bf
000000f0: 10ca c251 86b5 753f 0206 ae3f 1f54 7f3f
00000100: b6c6 53da 5a5a a8bf 0950 6858 bd7f a73f
00000110: c28c 2da4 e79f a53f 67d9 0335 eeb6 913f
00000120: 2e58 c5ea 1f79 8bbf 6027 1130 6e41 b1bf
00000130: 3514 e41b 2269 b1bf fbba f838 5251 b93f
00000140: 986f 9fd6 721e b5bf 4f27 0b91 f04d 8e3f
00000150: 13dc a99c 6a62 88bf aaa1 00cd 86ca b83f
00000160: 2fd8 87a6 af4d bcbf a9a2 507e fc30 a83f
00000170: ac9e 38a0 2b1f c7bf d538 0730 9d75 cb3f
00000180: 587d 2fe3 b85d b7bf 6112 7053 9b34 ba3f
00000190: d750 c0f6 f07b b13f d252 fee4 03ca c1bf
000001a0: de36 3865 e268 ba3f 61f3 566b 343f c13f
000001b0: cf71 78cf 5544 b2bf c571 5d90 6cbe 923f
000001c0: a326 4dc3 cec1 c0bf 96c3 bc0d 3352 b5bf
000001d0: 806e 54f3 973e aa3f 23fd 6d1d 23c1 32bf
000001e0: e89c b181 5b28 a63f 7fdf c6a0 10d9 a2bf
000001f0: f257 63bc 102d c13f 8b6d 480a c322 b3bf
00000200: ec5e a5d4 c022 b53f b682 e514 ed6a 81bf
00000210: f34e d5cd 3d2d 90bf bd71 1638 df32 a43f
00000220: a6d3 63c6 d62f bfbf d23c 6332 76bf 913f
00000230: e525 5f29 569d 7a3f 6b30 7f2d 96b3 a2bf
00000240: 6aba be26 00d8 b9bf 91e5 4586 2052 a93f
00000250: 8619 224f 8c7f 9fbf 4a1d 3b96 24db a43f
00000260: 2621 3999 fbf2 c23f c2d6 34d4 314e b43f
00000270: 5d53 a0f8 8ca2 acbf f542 a389 74fb b5bf
00000280: 4055 bc3b 31b4 9dbf b111 92b2 ab60 c13f
00000290: 6178 dabf 7d5c bebf 7cda f5a9 f7e7 71bf
000002a0: f625 4df6 9117 c23f 130d 835d a0b9 bebf
000002b0: 54ab a445 9d53 b8bf a0b9 9f6c a1d3 a93f
000002c0: 5a26 69b1 53ed c1bf 22e3 d274 0ca5 c53f
000002d0: 651f fa4e 2626 c3bf 732c ff07 c795 bf3f
000002e0: 3685 8ae8 20bc ca3f e57d 4fd8 e4b2 993f
000002f0: ba35 2a72 a8a1 bdbf 9483 1c6c be5d 843f
00000300: d4a1 123b 693d b7bf cbea 25fc 1831 cd3f
00000310: 6605 4883 f27d c3bf dbf6 f725 9e31 babf
00000320: 075a 24e5 d674 a7bf 1dc6 df9b 2299 b53f
00000330: 05cd 617e 140d b8bf c29e c8f0 726d c7bf
00000340: c24e cea4 29a9 a23f 9215 2b96 9b09 c23f
00000350: 8ab5 3d14 e41e c23f 1e87 4802 fb20 9fbf
00000360: 68cf 72cc 2601 aa3f 53fa 023d b6aa afbf
00000370: 2478 ff00 1988 aebf cf40 65ee 365f b33f
00000380: 3f68 6fc3 be41 b0bf 5af6 29eb 8494 ae3f
00000390: 0e03 c866 5fd0 a93f 4a07 b6cf 44f6 ccbf
000003a0: 1c5e c1b0 b80c 8a3f 6aff 26fe 0e91 8cbf
000003b0: ed89 5e88 c5ea b63f f732 9e43 550e b53f
000003c0: 6a2a 2093 451c c73f 9dcd 6ec6 9085 a1bf
000003d0: 2ec4 d535 94b0 c1bf 81e9 8b2c 5dde c2bf
000003e0: daf7 a6a0 8d3a b83f 2561 72a8 0290 a03f
000003f0: 399c ee29 e9cf 943f a248 e67b 8a2c ac3f
00000400: afb2 4f2d 608d bbbf 0ec0 e601 b7d2 a83f
00000410: de0a 7a54 024b 60bf 6a62 e078 4b96 6dbf
00000420: 0d88 63a4 01ec 973f e70a ca93 b3c2 6f3f
00000430: 490c 20ca e6e3 723f a98e ba66 ff13 92bf
00000440: dc54 590d 50cb 673f cc5f e5b7 1c10 633f
00000450: bb66 57a0 87b1 81bf 0c5a fb51 f3fb 803f
00000460: fb1e 3a60 94be bcbf 2110 7073 4ea6 c53f
00000470: fc8a fdae 900e c63f 4369 a94d 6edc adbf
00000480: c856 1ab6 2eb3 bbbf 5a9f c8df 426a c5bf
00000490: c329 2bd4 7f2a b1bf 3afe ce94 4a39 bd3f
000004a0: 700f de8d c219 b03f 3e2a 763c 6f2c 733f
000004b0: 77ab a3c9 33de 62bf 7dd7 6140 c763 6dbf
000004c0: d197 b4ae 0644 8abf 552e 5bed 9667 8bbf
000004d0: c0cb 8b36 463e 7c3f 67ec 5114 0634 603f
000004e0: c2f5 a9e8 c4fe 9f3f 4200 de7f a317 84bf
000004f0: 7551 28b6 e474 a0bf 7e00 8189 c625 663f
00000500: 80c0 1f9e 04f0 b1bf f290 1501 9308 bb3f
00000510: f64d 7fcc 26af c03f f724 8fe3 1de8 a13f
00000520: 32c4 0047 1be7 b7bf d9b8 7a3d 81ac a7bf
00000530: 765c 3fcd f989 bf3f 8ab0 c705 9dcf 9c3f
00000540: 5998 20db bf7d c1bf 365f e9f2 b148 babf
00000550: 6880 b4e3 651b aebf 51c9 c78f 17a9 a6bf
00000560: 9860 9278 cc1e a83f 04ee 5b4d a037 b03f
00000570: 9184 bc25 444d c23f 2ca1 9b05 32ee b5bf
00000580: 9eb3 444a 2b22 70bf 970d 2da4 b50f c83f
00000590: 3981 503f 895b b3bf 7470 305f 362d b9bf
000005a0: e1e9 2361 f102 b6bf 3c70 3475 d921 c83f
000005b0: a6a8 f61c 1c85 a0bf bd20 4ef1 314c c4bf
000005c0: 6b02 75cc bb79 ae3f f018 37e8 841c 983f
000005d0: 9c2a 5e1f fa78 b6bf 55ea f775 d4a9 c63f
000005e0: 09ff 2146 5566 c6bf 225a 3831 977e 9a3f
000005f0: 3e7d 6355 45f8 bebf 89cf 95f9 9552 9fbf
00000600: b0a6 6fbc 7c88 b53f f354 d244 bd3d b2bf
00000610: 81a5 7d32 39f4 b33f 998a 23c5 48af 98bf
00000620: 3d2d e96b bad5 b43f b301 73f8 2fbd afbf
00000630: 9b69 7ef1 e4f8 883f bf85 e20a b983 b03f
00000640: b31e 08d1 ad17 bfbf c04b 2414 663a c33f
00000650: 1559 57b4 fc04 cabf ab99 bd27 cef4 b6bf
00000660: 46a3 4cbb d4e5 a63f 463f 967f a23f c13f
00000670: a677 ee16 a2c2 c23f 5675 5ba0 874c c6bf
00000680: 46eb abe2 22c4 af3f eff4 1436 99b0 a43f
00000690: 25ad 61ec 0da9 743f a042 4d73 8db2 7f3f
000006a0: c98d b2d1 8f8c 973f 8b7e 7d6a d579 a63f
000006b0: 240d dba4 b6df 83bf aa60 7b9d 4557 a5bf
000006c0: 7ea7 9eaf 2f4a 99bf aaa6 7cab 6c75 84bf
000006d0: 0449 f1c8 8083 88bf 79fb 85c0 a7fb 4b3f
000006e0: 46db 6eb9 0a00 653f a5ff 45fc 2e45 a6bf
000006f0: e3fc 5080 ec31 c83f 76b9 0414 c40f b4bf
00000700: 79e9 50df 4c3a b53f f51a 4aba 9476 abbf
00000710: 342e d387 fc61 843f dc68 2c77 973c 933f
00000720: 5ef1 c414 82cb c0bf c26b 485d 44c9 a3bf
00000730: c24b 3bfa 1810 94bf 08b8 2731 bdbd ac3f
00000740: 1480 0b42 f3f4 983f 24b3 280a 2617 aebf
00000750: 4330 29ad c60b 4cbf f4e1 cd7b 3208 a73f
00000760: 1e96 e179 524d 583f 2246 c0d1 9fc4 9f3f
00000770: 1eee be17 dde1 7abf 52f0 1589 9bed b1bf
00000780: 025c 836c 8a25 be3f 2d13 c6bc 7bb9 c1bf
00000790: b464 ad6a dd27 b4bf 5302 a7d8 bf32 bc3f
000007a0: 33dc a026 a0a4 c0bf 2445 f897 b268 b03f
000007b0: e9a8 884f f5b1 c2bf 8bf8 8bf8 30c8 953f
000007c0: 2895 7af9 b02a aa3f 531a e166 4a5a b83f
000007d0: 4190 18aa a119 923f 0022 92d7 a796 7f3f
000007e0: c40e 0972 0328 803f dccd 5625 51d1 84bf
000007f0: 2ad3 78e3 90d3 83bf 058d 7f8d 5574 923f
0.044060571105715915 -0.10096372027380761 -0.02105731021253925 0.03097754907141736 -0.0036250853763504652 -0.07208412782857601 0.08416652306329989 0.024202362076720593
0.005061517030883581 0.020192372183580443 0.055514971451081696 -0.05847205769145149 -0.057606894568740574 -0.0177343903527546 -0.08879338085439978 -0.010897011205695743
-0.0165241129653859 0.2050100216787927 -0.0793169207593776 0.06859057718063087 0.023976548739553585 0.04790168657828742 0.06649874866556323 0.011999829359729871
-0.1809080741870756 0.051276191918722167 -0.0010047931178151013 -0.07611635543757408 0.07046614327208076 -0.011904361409036543 0.005300068554947149 0.007648584428240126
-0.04756435313346456 0.04589645103638424 0.042235602179766754 0.017299386964589127 -0.01341462073530061 -0.06740463899145999 -0.06801045590334882 0.0988971127596691
-0.08249585857214325 0.014797095705393252 -0.011906464487067258 0.0968403101438812 -0.11056039634408486 0.04724873582774098 -0.1806387455301225 0.214526794863963
-0.09127383753319884 0.10236521517806231 0.06829744362068212 -0.13897751504250394 0.10316290827924088 0.13474135628885178 -0.07135521235654284 0.018304535209027657
-0.1309145406360602 -0.08328551373848678 0.05125880093893631 -0.0002861700754052834 0.0432766528909328 -0.03681232416732793 0.13418778608928467 -0.07474917412803543
0.08256154243042219 -0.008504726600848538 -0.01579758232885715 0.03945062217391946 -0.12182371467117878 0.017331930947702308 0.006497704094678512 -0.03652638726598031
-0.10095215745853073 0.04945470465731739 -0.0307599948214601 0.0407344277751301 0.14804024678802213 0.07931815558262215 -0.05592766318310425 -0.08586815223976514
-0.02900769164178496 0.13576265544192048 -0.11859880384369738 -0.004371612012042388 0.14134430433686845 -0.12001993449216668 -0.09502585363649746 0.05044273806548749
-0.14005514299997196 0.1690993853024106 -0.14960173469830376 0.12337917275651637 0.20886622767015134 0.025096488668962542 -0.1157479552004678 0.009944427179620331
-0.09078080837446773 0.22806083976668953 -0.15228110704633052 -0.10231960703819303 -0.04581328913825549 0.08436790757675579 -0.09394958577631847 -0.18302761799826867
0.03644685875692978 0.14091820557056828 0.1415677164872416 -0.03039924813686589 0.05079003568371726 -0.06184930319567585 -0.05963209283048368 0.07567160911753777
-0.0635031916748696 0.059726861673863055 0.050417882248444554 -0.2262655271734338 0.012719576734681097 -0.013948552256692632 0.0895198305065958 0.08224995518521526
0.18055028613919727 -0.03422214910770125 -0.13820126179374043 -0.14741100955127354 0.09464345142529798 0.032348712026932604 0.020324366745310327 0.05502732050367
-0.1076259718535748 0.04848262689790782 -0.0019888921268046275 -0.003611705214108964 0.023361230524535915 0.0038770205849812836 0.004611875077901458 -0.01765441002375093
0.0029045642393535753 0.002327018824114879 -0.008639392452937647 0.008293057383906642 -0.1122830138139043 0.16913777004822442 0.17231949371770117 -0.05832237909335671
-0.10820285745497948 -0.16730533530175756 -0.06705473832986457 0.11415544636747024 0.06289306605873235 0.004681047931976821 -0.00230321993614296 -0.0035876170759889235
-0.012825061995112382 -0.013381175154243122 0.006895326871687979 0.0019779318559450146 0.031245304775884504 -0.009810712184617047 -0.03214182590105256 0.0027035596540657117
-0.07006863460969903 0.10559958244772696 0.13034520135134614 0.03497403528997183 -0.09337015613051916 -0.046237982516105176 0.12319909344602017 0.028135732152734273
-0.13665006827904128 -0.10267173939189153 -0.05880278019526558 -0.04425881986743952 0.04710997554610791 0.06334878815317074 0.14298297731969403 -0.08566582333481126
-0.003938836194987609 0.1879794170036859 -0.07561548038257095 -0.09834613632159678 -0.08598240491475152 0.18853300307171306 -0.032265547309479545 -0.15857528955917202
0.05952250357450314 0.02354629199342012 -0.08778346315208768 0.1770577980058358 -0.1749979584164907 0.025873529795797386 -0.12097581228907914 -0.030588477476569707
0.08411388016215926 -0.0712545674344545 0.0779453037518092 -0.02410615638008071 0.08138623365919258 -0.06199026019885725 0.012193478221708179 0.06450993076079835
-0.12145506242097319 0.15021968825803178 -0.20327719503138356 -0.08967293234090927 0.044722221244518454 0.1347544787390637 0.14656473273947518 -0.17421050386375708
0.06204327599512864 0.04040983948878273 0.005044035328050788 0.007738640347114384 0.022997138189237796 0.04389826703004215 -0.009704043298717276 -0.04168145701777466
-0.024697060674646824 -0.00998959444366972 -0.011969572193411888 0.0008539742566851936 0.002563496538154383 -0.04349657849797887 0.18902355447241978 -0.07836556900722322
0.0829208417134505 -0.05363907598534993 0.00995251931671879 0.018785826348086995 -0.1312105752384793 -0.03864492071826177 -0.019592657349516214 0.056135093927750346
0.024371910959303092 -0.05877035974513081 -0.0008558960055977744 0.04498441468507855 0.00148327879244315 0.03102349965781149 -0.006563056605894539 -0.07003185364550404
0.1177603259014717 -0.13847300260035791 -0.07873329023768144 0.11014937438359 -0.13002397428655996 0.06409755907249753 -0.14605585463988938 0.021271481676187903
0.051106958822212 0.09512772571279386 0.01767590141948028 0.007712035782909243 0.007888819615920702 -0.010164865447996378 -0.009680873815435104 0.018021904717795873

B1 f8 [1, 64]
00000000: bb61 66d4 5fba 5fbf 973e 94f8 a0ec 573f
00000010: c31b 973f cc12 6abf bbd8 6ffa 9547 47bf
00000020: 31da 7a7a 6cde 633f f1ed d82f 351f 78bf
00000030: 9990 4ea6 f1b5 5b3f edfe 67e7 78e4 233f
00000040: f30d 68ec 7979 723f 01a0 93e7 1770 6b3f
00000050: 65b2 2334 fe5b 763f 71f8 301f 294c 7dbf
00000060: 7bb5 bc14 01a0 35bf e576 200e 938c 233f
00000070: 3371 6a2f 6f42 5b3f 5a03 4594 7e96 23bf
00000080: efa8 228b 5d17 673f 404e 290d f959 723f
00000090: 9e7b feff 45cb 7f3f f965 067b e7b3 41bf
000000a0: f0c6 19c9 b2db 773f 4e7b 14a2 20b4 343f
000000b0: 8b00 b01b 3148 643f 3fab fc63 25b7 613f
000000c0: e1df 2421 26a9 75bf b1f6 b1c8 a449 01bf
000000d0: 4f4c bd72 74a5 57bf 28d1 7c83 67e4 443f
000000e0: d043 5fb5 c0c5 e83e f8dc 6d1d 673a 71bf
000000f0: 58c6 4afb 0402 6cbf 2361 114c deeb 753f
00000100: 6a65 7690 853b 5e3f ae04 8729 4488 0bbf
00000110: 7b58 e56e 9bda 75bf 4d1f a054 9405 33bf
00000120: fcc2 940d 5cab 723f 5fff 5d7c 5d97 57bf
00000130: 7104 7c90 3efb 453f b492 52fe 7749 653f
00000140: 5f0f 78b8 cd05 0e3f a58c b45b 567e 653f
00000150: 5073 6917 7257 38bf fee0 9b12 25fc 55bf
00000160: 40d6 2b03 8b42 59bf 0875 8dbf 435d 833f
00000170: ba0b 716b 4761 12bf 2d2b 99af d855 543f
00000180: c8ba 5a1b ad9e 61bf a4d8 d5c3 5322 783f
00000190: 5dd7 63d1 1305 7cbf 7628 77de 886c 2b3f
000001a0: 50dc f508 dc6d 703f 0bf0 01e0 0814 7bbf
000001b0: 4816 2eee 81aa 65bf 812b 691e cc23 533f
000001c0: a52f cfb9 bd8f 623f 6700 ac63 5f10 753f
000001d0: 4183 19ec 0c5e e7be 4ba8 c09c 38af 70bf
000001e0: 20d4 57e9 3020 6e3f 7d6b ff0f 762d 51bf
000001f0: 1da2 d375 f124 4abf af44 e547 7730 61bf
-0.0019365249478139185 0.0014602252943553323 -0.0031827916361381894 -0.0007104379955069831 0.0024253958434557123 -0.00588913704046544 0.0016913280353288206 0.00015176750066813548
0.004510380042578077 0.0033493487249991465 0.005458825095257501 -0.007152710563842133 -0.0003299715651675289 0.00014914794070446723 0.0016637883942741238 -0.0001494435802076543
0.0028187586804807522 0.004480336052967326 0.007762216031465123 -0.0005402450824931174 0.005824755078366314 0.0003159122153010744 0.002475829996456074 0.00216252615782278
-0.0052882661278132745 -3.297361498598212e-05 -0.0014432561101400847 0.0006375794828046609 1.1812435030041356e-05 -0.004206087868502843 -0.0034189317032875914 0.0053518947107351915
0.0018452457751208747 -5.2513675828710706e-05 -0.005335433159720289 -0.00029024955131306125 0.0045579524824439464 -0.0014398968646389327 0.0006708198061177296 0.002598509180261688
5.726369914429876e-05 0.002623718899160093 -0.0003714231055818489 -0.001341854289817645 -0.0015417439978454711 0.00945523193666499 -7.01141205903662e-05 0.0012411705087226985
-0.002150858020136457 0.0058921119756318065 -0.0068407796991233035 0.00020922823681096867 0.0040110201947448215 -0.0066109034233896675 -0.0026447808936065666 0.0011682027194576952
0.0022658067304969936 0.005142567267057619 -1.114243730454686e-05 -0.004073353902677888 0.0036774592688240265 -0.0010484364465727918 -0.0007978610043695742 -0.002098305673975696

B2 f8 [1, 10]
00000000: 920f b4fb 07b4 a1bf aa30 5816 2705 a13f
00000010: 2a7c f29e 5156 79bf 6274 ca33 4f21 81bf
00000020: 586f 9aa7 fb71 7d3f d658 5388 44f5 aa3f
00000030: 8bed fd5c 7e14 92bf 3eaa 3849 844b 7a3f
00000040: adac 9132 5e9a 9fbf 0178 240f eb70 5ebf
-0.034576653934009674 0.03324243686447066 -0.006185835677711396 -0.008364313858061748 0.007188780809567273 0.052652494088464216 -0.01765630190446425 0.00641967462756071
-0.030862304531564067 -0.001857976484252344
