weights.npz (npz, 81042 bytes, 6 tensors)

filter1 f8 [3, 3]
00000000: 8c7a cb3c e565 c53f 63e7 5755 2abd ef3f
00000010: 169f e1a6 8ac6 df3f 9f6b 8d19 772d ec3f
00000020: abf8 5702 b5e0 c03f 9c32 e84b d79b eb3f
00000030: cdf4 e105 378a d93f b6e2 056d 705b d93f
00000040: e2f4 306c a8ab ea3f
0.16717210262773496 0.9918414751875669 0.4964930181217694 0.8805499552794237 0.13185751547275024 0.8627735598143604 0.3990609700629875 0.39620600363518166
0.8334543336019602

filter2 f8 [3, 3]
00000000: 93ff d7f6 175a c23f f7ad 90fb 41f1 e53f
00000010: a35c d8b0 eeb0 e83f 50fb 0351 f39c ec3f
00000020: 70e9 1cbc 5e7d ed3f 2c9b 8463 45db e93f
00000030: 1983 67dd eee0 df3f 21de 1153 f0d6 e23f
00000040: 29ba 4e52 eaf1 ca3f
0.14337443879048503 0.6857004083043979 0.7715981916434383 0.894158991082671 0.9215539621430207 0.8080164855681224 0.49810382482069 0.5887376425225207
0.21050766962930936

W1 f8 [144, 64]
00000000: 634e ef56 e5e0 573f 17be 101b 640f 77bf
00000010: 996e 4373 d143 58bf 9791 1755 c49e 953f
00000020: 48d3 80a3 7f79 973f def2 4942 20a8 93bf
00000030: 090a 23fc 56aa 50bf 9cdf b60b 79db 7a3f
00000040: 981c 3589 ae09 7cbf 729b ac26 4c98 8cbf
00000050: 69b3 5d2d 379c 7abf 080d a3fc ddaf 74bf
00000060: fe76 f84c e6e0 5abf 0701 b121 3e3f 693f
00000070: a9dc 471c 6d28 75bf c781 e3dd 44f2 7abf
00000080: bf68 8cee a4e6 313f 8220 d78c e3f4 45bf
00000090: 8830 79c3 9a06 85bf 64b7 23b4 1969 6bbf
000000a0: a774 8bda 04ff 84bf e572 773b 4ef3 8a3f
000000b0: 88f6 4503 9acd 063f 79bb 6291 b10b 86bf
000000c0: 4998 8db0 e311 71bf 38d1 a20d b277 553f
000000d0: e2d2 850a 343a 63bf 318c c56a 6bd7 71bf
000000e0: f1d4 345b a23f 853f cf7c 7105 a605 803f
000000f0: 380c 09df 0a6a 43bf 67c8 3710 2595 713f
00000100: 7a46 b8f5 c3bb 843f 3e2c 5e94 2e79 8abf
00000110: d8c4 bf11 eae4 5a3f 186a 5054 ff36 7f3f
00000120: bf58 d842 c4d8 3d3f 37f8 560f 09bd 643f
00000130: 96b5 ab62 db77 803f 586a a761 9988 823f
00000140: f7d9 801f 13fa 88bf 85c7 3584 a842 573f
00000150: 5059 1d61 c64a 7bbf 02d2 3373 fcdd 833f
00000160: 8686 0953 d434 6c3f 5413 c6b4 4183 833f
00000170: 698f e91f 0a70 813f 19e3 a925 0e57 52bf
00000180: c38c 4dd3 e831 5a3f 70ae 6489 2de0 7f3f
00000190: 5ff4 833a c036 7c3f f277 0ba8 c15a 87bf
000001a0: 2098 e1e9 89f0 8ebf de6b 5e37 1ead 8bbf
000001b0: 6108 c004 4601 8a3f 5f7b f64a 6917 923f
000001c0: 019e f3be 18a4 393f 1581 5ce1 5dac 803f
000001d0: 1983 8e51 2a7e 4d3f 15ec 78fd fcac 46bf
000001e0: 60ee 819e fb7d 80bf 2101 eddf ab23 81bf
000001f0: e024 79f1 5db4 803f e1a4 020b 9421 7cbf
00000200: de66 83be 4f8b 5f3f 7b49 666c 99e5 603f
00000210: 9ec3 5357 e96c 823f d5cc bf5e 925d 853f
00000220: 4d5d c7c4 f36d 853f d58a 320d 6298 87bf
00000230: 8910 c98d 3719 673f be61 2beb bce8 74bf
00000240: 169e ca6c 6bb8 823f 3f72 89a5 f492 80bf
00000250: a6d8 248c 30e6 87bf 8c66 d6a6 a824 913f
00000260: 7fd9 afc1 0e1d 3f3f 31c6 9b80 bae6 7a3f
00000270: 594b 070c dfd3 82bf ed5d 2a1f 0182 673f
00000280: e34f ec1d c3b3 8fbf f3ae 5733 0060 843f
00000290: 6844 e882 6598 743f b099 3f11 9528 813f
000002a0: bdf6 2795 9f8d 90bf 83de 971d 3362 723f
000002b0: 627d 4fd9 c5d1 5d3f eb42 d954 7f91 803f
000002c0: 2887 eac3 0516 6a3f e19f 78b8 b374 903f
000002d0: 669a 43d8 8491 90bf 04d2 751a 7eae 443f
000002e0: 83e5 a984 c9c1 633f 7f1b c09f e0ce 84bf
000002f0: 9164 7f5b 675e 82bf 086d 1cbc 1894 59bf
00000300: be01 736f 98bd 73bf 3438 83ed 0542 8bbf
00000310: eab3 82ad 3063 89bf 9db9 716f f92c 803f
00000320: 95b5 4e3d bf45 8c3f 9294 fcab 1e5e 5bbf
00000330: 432a ba62 7020 8b3f 61b8 9c97 65b1 6b3f
00000340: 2f1a 8d1b 1419 77bf 07b3 898a 6c90 69bf
00000350: a39f 0305 3adb 87bf 3322 8fef bca8 7fbf
00000360: 7170 f6aa d3f8 8fbf 5dcc cc74 dc88 6abf
00000370: e2c2 4923 0eff 87bf 2839 0c89 6f9a 943f
00000380: 7c32 c714 26e6 7fbf f999 4b1a f212 77bf
00000390: d5bf bbbe 5931 803f ff7f 8f74 e228 71bf
000003a0: a28f bc82 ff80 833f 8857 df22 2754 97bf
000003b0: 850e 821b b2c8 833f a044 8552 01eb 62bf
000003c0: 140f 446b bdac 8abf edf6 86aa 0dc8 5dbf
000003d0: c882 2bf3 7815 7b3f 6572 980d 21aa 733f
000003e0: e133 2e9f 3e35 793f 78f7 a474 7b64 90bf
000003f0: 687f a1c6 d0d9 57bf 7432 f085 1aeb 8e3f
00000400: 85a1 3475 1d44 6c3f 5647 b77b 23ce 68bf
00000410: 43a3 570f ef4c 86bf 8e97 12cd 27c4 81bf
00000420: d63c 67b8 215e 943f d15f bd4b 4901 5c3f
00000430: c331 f632 60b0 703f c0b9 a558 81a9 423f
00000440: 5a80 94a2 f2d4 7f3f 0e55 77fd 0f7a 7abf
00000450: 52e9 a75f 6057 683f 6e50 74d8 0c2e 903f
00000460: 4eed 20b0 1e49 753f 48a1 1493 f5c2 5ebf
00000470: 92ed cdda 2d7e 42bf 5308 f9af ce64 8e3f
00000480: 97d4 dd53 e48d 3ebf 2860 0b4e 8dfd 6e3f
00000490: 3d9d 8d1c 8bff 553f dcc9 e6dc ff81 71bf
000004a0: dbfd 2fcb 3bc3 653f cbca 6a1c 02cc 703f
000004b0: 058e d143 be47 72bf 83e4 a607 0bd5 68bf
000004c0: b346 edcc a3de 743f 6395 bd36 df88 60bf
000004d0: c004 1708 cabc 83bf 3b33 c101 bc2c 793f
000004e0: eda3 7fa6 8136 6cbf fb2d 4348 2a73 853f
000004f0: 19d0 2a8c fa3b 5b3f 1877 2912 2302 a1bf
00000500: 4485 5d3e 3d6d 9c3f 7169 314e 101f 7abf
00000510: 68b3 72d2 641c 7cbf 9702 7fb0 b7e0 7b3f
00000520: 4783 e6f1 92d9 823f 7317 33f5 4694 613f
00000530: d30c cfc6 e356 82bf 4b86 b4b3 6662 763f
00000540: 760c 8fb7 2dad 823f 749f ec1b e8db 653f
00000550: dc0a df5a 78ee 6c3f 95fd 5ef3 b449 86bf
00000560: a0b9 9679 afaa 5d3f a0a8 fc56 2c46 903f
00000570: ff90 61a0 121e 5cbf e642 8bec dac8 65bf
00000580: 0a0f 9bf1 4ea5 7ebf cd31 d168 7c98 8c3f
00000590: 09ee a6e9 8edf 5c3f 471d 8602 d9ec 77bf
000005a0: 1ea9 a4a9 9747 80bf 8ef3 888a f97a 8c3f
000005b0: d0f9 5424 2562 28bf bee2 d90c d6eb 653f
000005c0: 11b5 98ce 3dbc 833f e3a8 df7d 02b2 6cbf
000005d0: 3612 be36 b4eb 82bf 67d2 9237 18ed 703f
000005e0: fb61 dcf1 5826 69bf 2a21 210d 22d7 71bf
000005f0: 7d76 b880 e89a 60bf 5a4b d051 b360 84bf
00000600: 47b5 f1ce 3023 723f 5e01 bf43 142c 39bf
00000610: 8ce9 e72a a38a 663f 99d4 e4ea a028 933f
00000620: 0df9 4696 b028 7a3f 68bf 3e8e 902a 53bf
00000630: a8db 6716 2ed7 803f 9890 3ea5 5ba4 62bf
00000640: f9cb 7996 2800 843f 4aa5 4c08 95f9 7b3f
00000650: 4ff4 de99 900c 6d3f 8297 31c6 5ff8 893f
00000660: 7d24 4b38 6e29 77bf 3969 6d15 8a2e 75bf
00000670: 8e39 cd15 d365 85bf a6e4 a306 135a 803f
00000680: 10c0 eb64 4200 853f f297 6d4c de6f 773f
00000690: 6a7a 8136 90bc 783f 2219 0f46 0e2f 7cbf
000006a0: aad9 3a7a 34d0 653f ed0b da75 9809 6bbf
000006b0: 4158 0f0d b275 8f3f 398f 24c5 0c60 903f
000006c0: 80c4 78d5 e3e8 6e3f b3da e011 8f69 7bbf
000006d0: 377f f373 7dc7 903f 8871 2b8e 1f6a 7f3f
000006e0: e388 675a 5ab0 70bf ee46 2295 f9af 98bf
000006f0: 8871 189a 3f2f 62bf 9064 acb6 dc8c 88bf
00000700: 7b94 30d7 f46a 703f bee6 6919 b625 7bbf
00000710: 72b5 f587 85a5 62bf fc8a d550 c326 61bf
00000720: b366 0888 d810 643f e7bf 5daf b377 79bf
00000730: de28 511e b033 573f c94f 5aab eb74 91bf
00000740: a75d 3f0e 7e72 7fbf 74e3 0ba3 5d68 823f
00000750: 512e a343 eb7c 71bf d64e 8b71 da8e 793f
00000760: e107 d706 cf1c 84bf 52b2 facf bdb5 63bf
00000770: f4ee 232f 01be 63bf af7b 4fe1 e735 70bf
00000780: 90e3 ee6c 2c84 893f 8fd1 b633 d099 573f
00000790: 277d dd3f b236 753f 68ab 6fba cda0 703f
000007a0: 618b a375 78a8 66bf 5c1a 68b8 24f5 8f3f
000007b0: 2e00 5090 2a68 7f3f 2098 3977 11b9 84bf
000007c0: 39bb 17db 4001 71bf ddeb c32c 2c85 433f
000007d0: 0b1c c489 a53a 84bf 5cf0 b990 f3d3 62bf
000007e0: 7f8d d407 08c1 7c3f f433 62b1 1694 71bf
000007f0: dad5 c29a 3350 8a3f 7475 4085 0dc0 7d3f
0.00145742794460526 -0.005629912412629354 -0.0014810128605437288 0.021113460248572826 0.02292441783375246 -0.01919603733630281 -0.001017174669457279 0.006556961855885304
-0.006845170765991025 -0.013962359361881591 -0.006496634994488251 -0.005050532470878062 -0.0016405343084281983 0.003081914282603407 -0.005165506565837288 -0.006578701983216146
0.00027314688354497166 -0.0006700621685746951 -0.0102665034202334 -0.0033460142159275497 -0.01025203506417889 0.013159381093765752 4.3493521306265054e-05 -0.010764491319006574
-0.0041674512984624735 0.0013102759171888644 -0.0023470894267866175 -0.004355830762821576 0.010375278862378741 0.007823273697964343 -0.0005924752313791809 0.004292626169887104
0.010123759208940476 -0.012926448729350889 0.0016414914925884563 0.0076208089640439555 0.0004554251816854086 0.0025315453483179223 0.008041109036151888 0.009049604694998312
-0.012195729636101922 0.001419701163140692 -0.006663107795097226 0.00970074869699378 0.003443159767173412 0.009527695969845297 0.008514479731452433 -0.0011193884044173373
0.0015988134084288653 0.007782152059273892 0.006888152020335075 -0.01140357297975567 -0.01510722870825637 -0.01351379019233961 0.012697741527521513 0.017667432022445136
0.00039125064991060726 0.00814126342771763 0.0009000498422332164 -0.0006920085242606589 -0.008052793288008064 -0.008368819018528985 0.008156522685697387 -0.0068679602556269434
0.0019253042938118174 0.0020626064826469426 0.008996794679178962 0.010432380215183926 0.010463623469077499 -0.01152111628318179 0.002819641593562909 -0.00510476871814841
0.009140815026810006 -0.008092795659814132 -0.011669520642140729 0.016741404707863825 0.0004747544314222182 0.006567696118268838 -0.009193174891071786 0.002869608107470381
-0.015479587889366491 0.009948731963013801 0.005028149155365737 0.008378185833817081 -0.016165250281111144 0.0044881817534513395 0.0018200332754004446 0.008090014244915142
0.003184329281183635 0.01607018292830265 -0.01618011064501914 0.0006311527003349253 0.0024117408659633534 -0.010160212397762212 -0.008969123344217319 -0.0015611878920427941
-0.004819484186726118 -0.013309522925194363 -0.012396221442338946 0.007898281777866606 0.013804906900839945 -0.001670389130546544 0.01324546624461676 0.003380487844785882
-0.005639151139638573 -0.003120624536953168 -0.011648610380191665 -0.007729280500776303 -0.015611318259111525 -0.0032390886102802567 -0.011716947986515295 0.02012037538502756
-0.007787846331166134 -0.005633302415594781 0.007906628735753355 -0.004189381209442899 0.009523388077987086 -0.022781955245441604 0.009660140480497912 -0.0023093248202391142
-0.013024787746423828 -0.0018177159746381414 0.0066122746090690535 0.00480091964120941 0.006154293648148874 -0.01600830935898709 -0.001455739863125383 0.015096862041923155
0.0034504485462500422 -0.003027982047321946 -0.01088892713137713 -0.00867491812307344 0.019890334014971277 0.0017092910556666294 0.004074455049146444 0.0005695230077387634
0.0077714422161819455 -0.006464064084373845 0.0029713518426863006 0.015800667487454616 0.005196685671815372 -0.0018775366009525386 -0.0005643581294942238 0.014840712304366266
-0.0004662210884512434 0.0037830123768394404 0.0013426645766346356 -0.004274367775382672 0.0026565711827968136 0.00410080742465153 -0.004462950918511681 -0.003031274359468984
0.005095138402639132 -0.002018390621673903 -0.009637430545696879 0.006146177675032056 -0.00344395944920394 0.010473566370271739 0.0016622492554860867 -0.03321942898467806
0.027760464602925042 -0.006377280896311497 -0.006863015972311405 0.006806104218356388 0.009204051978316875 0.0021458993811362347 -0.008954791550314678 0.005464936427672716
0.00911937443186715 0.002668336236997188 0.0035316801722456836 -0.010882772137732736 0.0018107141134851915 0.015892689522993053 -0.001716154279642501 -0.002659251771867199
-0.007481869100675951 0.013962718914762551 0.0017622848159665214 -0.005841109938393991 -0.007949051727866915 0.013906430759669932 -0.00018603042023275377 0.0026759319942438456
0.009636385791135045 -0.003502850405301948 -0.009238632126433815 0.00413236102865664 -0.00307004329705429 -0.004355557453955586 -0.002026990992603227 -0.009950066503767441
0.004428091676442598 -0.00038409704916022257 0.0027516543261729195 0.018709673249038692 0.006386461060570403 -0.001169816177007699 0.008222923334853707 -0.002275637621965098
0.009765927402645135 0.00682981696881175 0.003546030448858185 0.012680767284290576 -0.005654745623084098 -0.005171336545425392 -0.010448121168931814 0.007984303131239944
0.010254400925504142 0.005721920350742581 0.006039203006450758 -0.00688081336642757 0.0026627564382934637 -0.0033004739514708088 0.015361205123479606 0.015991401226656186
0.0037731599693633933 -0.006692465654899382 0.016385994150254404 0.007669566405379753 -0.004074433271371999 -0.024108791091356822 -0.0022197954392721465 -0.011987423252821011
0.004008251579795115 -0.006627761197359026 -0.0022761924771461045 -0.0020936789284616824 0.002449438965652495 -0.006217672247529982 0.001416131964350024 -0.017047579129737565
-0.007677547840976662 0.008988124407083943 -0.004269522667708595 0.006239751143499913 -0.009820573230971465 -0.0024059970163164213 -0.00240993720319504 -0.003957658559527496
0.01245913226544973 0.0014404805395829866 0.005179115569119908 0.0040596042881400965 -0.0027658798909312864 0.015604292752880493 0.007667700066122092 -0.010118614626843991
-0.004151585906113913 0.0005957093904095341 -0.009877484576021464 -0.0022983319411747204 0.007020026559334424 -0.0042916189614858775 0.01284828487437555 0.007263233961592664

W2 f8 [64, 10]
00000000: b77f 0f17 3a59 8fbf 5fda 6248 dd01 70bf
00000010: c73a 9f13 89f0 87bf 1a04 4e41 384a 94bf
00000020: b713 aae7 aa68 95bf b7a7 00be b990 c13f
00000030: 5714 ccd8 0e8b 90bf 9263 0211 6aa4 74bf
00000040: 3173 d0b6 5564 99bf cda9 f123 b37e 65bf
00000050: a389 4e32 d2cf 243f a134 44e4 dbcb 803f
00000060: faf6 4852 56c2 84bf 6581 a0c4 804f 55bf
00000070: 7d36 fc96 d75e a03f c7e2 3e82 f3cb 88bf
00000080: 9713 09eb 1394 6d3f 2c5f ad60 1a4c 5e3f
00000090: 238f ae6a 1132 87bf 1896 075e be60 82bf
000000a0: f676 a9c0 df0b 8fbf 9770 7965 9ed0 53bf
000000b0: 0732 b17c 0c9a 70bf 1243 7d60 b263 873f
000000c0: 4913 8d43 1aba 623f e502 de21 b5bf 9c3f
000000d0: 8be3 4e64 03b2 64bf 3161 893d ae89 82bf
000000e0: 75d3 0ada 9a70 91bf cd9d 0d9c 9eb4 75bf
000000f0: c247 f934 1d80 4c3f 5738 b980 d042 523f
00000100: 2f10 167f d71e 8abf 62bd da20 a623 583f
00000110: 1b97 fea2 1b9f 70bf e54d 67d8 9629 94bf
00000120: ebd8 54b8 2068 18bf d87a a520 7dc5 8bbf
00000130: 8034 9e6b 6026 853f adc0 74f1 6362 893f
00000140: ed52 e487 71da 75bf 6dc7 eba6 e1c5 703f
00000150: 2d5b 0611 3a8c 8a3f 6016 a508 99de 84bf
00000160: 5ba7 36e4 d472 533f 08f9 3540 eb70 923f
00000170: edfb 1f4a 1e43 74bf 45d0 ba59 791a 86bf
00000180: 709e 22f6 00d8 7fbf 97a9 8f19 b7e4 8fbf
00000190: 27d9 6626 fba4 7d3f b0f6 6afc 0d61 8b3f
000001a0: a0c0 44e2 871b 803f 4cba 619c b149 6b3f
000001b0: 59d2 c2cb 949a 753f f089 d0a3 bee1 8bbf
000001c0: 3b13 121c 6e62 90bf f44d a661 d172 55bf
000001d0: 22f3 167d 08a4 953f dcb2 39c7 6532 93bf
000001e0: e936 a1b4 6c51 853f 53ef a09d f9bc 95bf
000001f0: 3fd2 969b bd48 893f 451e 1b2f da0b f73e
00000200: 9a16 d8b8 bb75 7a3f 8e6b f50b acc5 91bf
00000210: f006 0850 6f7b 753f d431 c1c5 c320 82bf
00000220: 0832 b963 caf0 91bf 6a91 6e31 a110 813f
00000230: 1a5e 9804 f55e 9abf 5bf9 8329 dee2 91bf
00000240: aab1 e360 6771 67bf 5e40 dc78 e9f5 84bf
00000250: 2b23 31b8 83d4 763f ca64 0e00 7693 b13f
00000260: a0ea b071 cdbd 59bf f696 8f9f 2658 7dbf
00000270: 3856 e02a 0dba 823f e4f2 7f18 41b9 50bf
00000280: 3e4f 7ddc c363 8d3f ba82 434e 859c 633f
00000290: 9a13 ba18 6c9f 5bbf 1e9a 3e29 7546 81bf
000002a0: 6193 d2ec 9625 88bf 7952 753c 0db6 46bf
000002b0: eb7d ca69 966b 8e3f fd7c 1bbc 2ce4 70bf
000002c0: f228 a98e bda3 533f 24d2 20ea 35dd 7ebf
000002d0: d597 220e c475 64bf c24c 5ed4 86fc 6abf
000002e0: d8da 93ce 5165 76bf 003a b254 1bc2 7dbf
000002f0: 738a ec35 02f8 7e3f 1e25 830a 1137 7c3f
00000300: 8bc7 38b2 d22f 83bf 7962 98f8 0697 61bf
00000310: 0416 cea0 243a 7bbf b5ed cf6b 6a8e 99bf
00000320: 6f97 db99 1ee6 9bbf 853e 0d59 6086 88bf
00000330: 318b 6024 796c 90bf 8481 b485 3be2 563f
00000340: 2d1c 7261 41cd 9bbf 1a47 4e58 da95 c03f
00000350: a41d a6a0 bc65 8fbf b95f f7d9 6abf 95bf
00000360: e84b 05a6 107c 90bf b8d3 abe1 56bb 91bf
00000370: 1910 2061 f9fb 3e3f 623f 535a 3fef 4bbf
00000380: 4931 19be f640 90bf d3b5 6677 e971 833f
00000390: 4df0 f062 d611 8bbf fb6f aa5f 7fbb 7dbf
000003a0: 114b 2ef3 2a99 91bf aa54 5ac4 ef38 933f
000003b0: a5f8 e36e f2ac 56bf d620 f367 a356 8bbf
000003c0: 04c6 5939 fae9 8cbf bad2 e0dc e821 71bf
000003d0: 65c0 dbb8 d465 853f 4ec5 06b2 55bb 913f
000003e0: 8a5c 1a6c d40d 6b3f 8ca7 2cb1 a29c 95bf
000003f0: bc54 e7a0 895d 6fbf be23 988d e73c 70bf
00000400: 0f8e da74 1b24 823f 5519 12e1 0965 57bf
00000410: 8aa6 db7b 37d1 5e3f ca4b 62ae c81b 7cbf
00000420: 6d33 9ebe c9e9 66bf f81a f02b c87d 77bf
00000430: 7841 107c f974 713f 3573 10e4 1fba 943f
00000440: cbeb 65bd 1c0f 74bf 5ea5 d938 7f7d 8abf
00000450: 7dc3 5540 f01b 623f 6de9 e19d dc88 5bbf
00000460: 5f96 b915 0665 72bf c7f8 a2dc 1931 84bf
00000470: 9814 cc84 2e5c 5e3f a645 d12f b77d 85bf
00000480: f59d 6df6 3b67 96bf 831d 867b 30a9 7f3f
00000490: 4ca2 f1b7 c52e 853f 9b28 c0fa 3ffc 903f
000004a0: e417 5c23 2390 973f badc 8000 3099 933f
000004b0: 8f60 50c8 8f2d 8cbf 5f82 4b83 6510 873f
000004c0: 554d c440 966f 8cbf 0262 836a 94dc 543f
000004d0: 5909 a1f7 a55a 7d3f f0aa fedb 7515 953f
000004e0: 8b47 6e0b ac84 64bf d7b2 b10a af09 80bf
000004f0: b0f8 de55 5b35 79bf 0a59 25c8 f6b2 693f
00000500: 02a9 7a44 028f 8cbf 1cc0 418d f6be 8d3f
00000510: 7b61 8e3b 16cd 853f 6fe8 c430 dfe4 94bf
00000520: 4b36 d9e5 562f 5ebf 3664 2cad 4fa9 903f
00000530: 7364 cdb9 98b8 7bbf 7db3 6b8e 1b83 6d3f
00000540: 5839 440b 5038 76bf 2594 3e4a f16d 85bf
00000550: 3572 548e 1b2b 7a3f 8f1c 4e45 51eb 8dbf
00000560: 8ee4 1348 f5ce 7cbf e8bf 5e6a a479 84bf
00000570: 92ea cba8 17ee 71bf cda6 6bb6 2535 b23f
00000580: 3feb a0c8 7938 5ebf de30 c1c5 58e8 67bf
00000590: d62b dd81 b78a 943f 2fc6 a2a9 f788 82bf
000005a0: e128 ee3a cb4a 54bf 6ff7 da38 13f2 61bf
000005b0: 1f26 6b3c 3714 623f 7c4f ee9f 4a65 773f
000005c0: 7b85 cce7 46c3 843f ef02 5633 1bee 6a3f
000005d0: 55b8 4be1 5b4f 74bf 51c5 0703 f802 4ebf
000005e0: 6a21 4e6a 4cde 38bf 099b 121d 40c3 643f
000005f0: 1648 7450 259c 92bf ee1b d286 2db8 853f
00000600: 661e 8897 0196 96bf 5617 7d48 f3f2 5d3f
00000610: cf84 02ba 9295 753f 1618 57f1 675f 53bf
00000620: 913e 19bd 653a 66bf 276f 3d57 d59b 91bf
00000630: a39c 38f2 fa0d 913f 3f82 844c 90d2 87bf
00000640: 2f8c 3e53 3f90 673f 35d9 1af6 28f0 89bf
00000650: 3ca3 8cb9 b141 6c3f 2e63 64f7 b904 82bf
00000660: 344d 6e95 0389 7abf 318d 75ef 1647 6cbf
00000670: 5d07 81d6 29c3 93bf 9f26 36ba 80a3 91bf
00000680: e51f fea4 8432 7fbf f91c e7af 30c0 7a3f
00000690: f887 b1eb 8f50 76bf 6179 6e9f 41b7 673f
000006a0: 5f5d 2ac7 65b6 96bf 374a 7d63 3e65 8dbf
000006b0: 0328 d00d c744 56bf f315 8b0f 2b67 a73f
000006c0: b193 7006 219b 733f e7fd fa26 c47d 80bf
000006d0: 5fef 570a 2342 673f 6b0d fb08 0384 84bf
000006e0: 7bca e049 9830 5d3f 7f7f 5a5c d51b 8fbf
000006f0: 39e6 7f79 8a57 883f bd1c 4668 6ee3 7e3f
00000700: 055b 523f 8fa1 84bf e27d c0dc 4784 7f3f
00000710: f69f 3809 1746 7c3f 8529 066c e3db 6dbf
00000720: 32d3 ce95 d3df 3f3f 4feb 1e3f bb0a 86bf
00000730: 8d23 2e10 1369 84bf af6b f6e1 a1e5 93bf
00000740: c8a5 2e47 8aab 8fbf 6a1c 6c72 abc7 7dbf
00000750: aedd c031 c52e 97bf bf55 54cc 062d c23f
00000760: 264e a7fd 27a0 84bf 2fa1 bbb0 61e5 98bf
00000770: 1b66 f584 86b6 80bf 3ae3 2bd3 94e9 7bbf
00000780: 853f 82a9 d4de 4e3f 316f f5d8 b994 803f
00000790: 5137 e3b5 909a 87bf 739a 6a78 0228 6ebf
000007a0: 3bf6 5388 370c 8cbf f493 fa8a d3f2 a73f
000007b0: 459c de74 2b9f 90bf cf6f 0d42 91a8 6abf
000007c0: a7f1 c6fc 060b 8bbf bd1a 1388 c26f 79bf
000007d0: 3aa0 f59d 0d93 683f 64bd e49f df6f 503f
000007e0: ac68 5546 9ce9 8e3f 558f 4196 834e 803f
000007f0: 3eed 4fa4 967a 55bf 7dbc 9045 8920 6ebf
-0.015306905583145054 -0.003908028016829406 -0.011689253722491867 -0.019814375863919854 -0.02090708769766866 0.13722917344540317 -0.01615546415543564 -0.005039610216180617
-0.0247968094664543 -0.0026238917194423062 0.000158781441453715 0.008201330093039085 -0.01013629377950619 -0.00130069327361334 0.03197358816224225 -0.012107756054193243
0.0036106480622799075 0.0018491990656083852 -0.011325965946361876 -0.008973586315685941 -0.015159366671635404 -0.0012094065513315372 -0.004053162362720026 0.011420625276203054
0.0022860062566984235 0.0280750562592428 -0.002526289581933521 -0.009051667454671094 -0.01703111606430548 -0.005299205368693061 0.000869764577098524 0.001114562622109646
-0.012754138532507479 0.0014733431193397419 -0.0040579871710287 -0.019689900358413132 -9.310435969642524e-05 -0.013560273703374134 0.010327103885879874 0.012394696050791099
-0.005335277061267557 0.004094964459669598 0.0129627739377561 -0.010190196586914613 0.0011870459573892409 0.01800887660419284 -0.004946821516567984 -0.010792682696184506
-0.007774356609082753 -0.01557295843845878 0.007237416319574564 0.013368710771256204 0.007865010826748453 0.0033310383760672187 0.005274373277803856 -0.013614167570328711
-0.016000481093686885 -0.0013091130009329462 0.02113354934202783 -0.01874693897700551 0.010409211408979728 -0.021228695150269882 0.012345773039535433 2.197866246580876e-05
0.006459935464140943 -0.017355621557139815 0.005244669737750604 -0.008851556274884688 -0.017520105682978154 0.008332499810258926 -0.025752857594936264 -0.017466994556337805
-0.0028616923437907076 -0.01023466491781749 0.005573763398452762 0.068656325353362 -0.0015711313524337314 -0.007164145347791742 0.009143927451115905 -0.0010207305622308921
0.014350443044953583 0.0023939708354279972 -0.0016859584456210054 -0.00843516857260079 -0.011790446378947274 -0.0006930889730179655 0.014853644469723334 -0.0041238543942363455
0.001198706736107055 -0.007535181621325413 -0.0024975613788056164 -0.003294242228500361 -0.005467719610570319 -0.007265192757712757 0.007560738215746643 0.006888453070311299
-0.00936855894460444 -0.002147210708028088 -0.006647246435823376 -0.024957335310302493 -0.02724502386163102 -0.011975052564280783 -0.016038792462619248 0.0013967114708251802
-0.027150174687019458 0.12957314788632673 -0.015330766346564335 -0.021238011888129658 -0.0160982705431926 -0.017316205524327194 0.00047278250087878917 -0.0008524951305392931
-0.015872817375837376 0.009494613605819524 -0.013217615980572495 -0.007258889726156066 -0.01718585118539823 0.018771883353640696 -0.001384007216585861 -0.013348843202394194
-0.014118151545718945 -0.004182729358991716 0.010448133365088272 0.01731618784987648 0.0033024929878809383 -0.021105329574460138 -0.003828781896326376 -0.003964333061511503
0.008857931617348517 -0.0014278980709448625 0.0018809358438666456 -0.0068624343022233945 -0.0027970257114646097 -0.005735189361991237 0.004261946248348962 0.02024125890249025
-0.004897224678979971 -0.012934678957395359 0.002210587731206136 -0.0016805796108473007 -0.004490875023838463 -0.009859277768893183 0.0018530325207291361 -0.01049368967702231
-0.02187818233087842 0.0077297109459161266 0.010343117404958545 0.01658725707969975 0.023010777505099514 0.019139051466677805 -0.013758776951405842 0.011261742657951488
-0.013884710170293838 0.0012732934356362029 0.007166527089852736 0.020589677383820282 -0.002504669213018345 -0.00783097030054007 -0.006154400614773944 0.0031370944936198785
-0.013944642748658701 0.01452438944417627 0.010645078365812513 -0.020404326774248135 -0.0018423412906431065 0.016270871109643724 -0.0067678418971236385 0.00360255605789067
-0.00542479769889178 -0.010463605001698248 0.006388766899615696 -0.014608988692783846 -0.007033308154171481 -0.009997639175566023 -0.00437745325029461 0.07112346366525486
-0.001844519547843773 -0.0029184087598307226 0.0200604126942315 -0.009050307144522566 -0.001238535372723386 -0.0021906257087200213 0.0022069052532500823 0.0057118334797400215
0.01013808627027645 0.003287366033589804 -0.0049584950508983665 -0.0009158812518405367 -0.0003794609604530682 0.002534508916670734 -0.018173773799453917 0.010605197598364282
-0.02205660331131156 0.001827943402490336 0.0052695971973275154 -0.0011824145379804077 -0.0027133929332093317 -0.01719601960154118 0.016654892953877575 -0.0116320870734522
0.002876399690607843 -0.012665100107693486 0.0034492942035239376 -0.008798077452000532 -0.006478322981723839 -0.00345186690872059 -0.019299176900183002 -0.0172252763418671
-0.007616537230099117 0.006530943092406754 -0.005447923841616735 0.0028950006194029963 -0.022180166512581475 -0.0143532632934341 -0.001359171284323058 0.04570898594606012
0.004786614422333566 -0.008052380027378582 0.0028391537077804697 -0.01001741763264504 0.0017816054528451409 -0.01518980682459392 0.011885721047281016 0.007541114119141654
-0.010073775405812233 0.007694512092740054 0.006902780518011289 -0.003644890006573922 0.0004863635602377236 -0.010762656081956172 -0.009966038638383324 -0.019430665413533606
-0.015463905618008492 -0.007270498003669615 -0.02263935199900196 0.1419991014196693 -0.010071098736182792 -0.024312521373674286 -0.008160639698576102 -0.006814557406635663
0.0009420908345578605 0.008096172269396714 -0.011525278616683872 -0.0036811874627631857 -0.013695176933192879 0.04677449294585037 -0.016232184417870128 -0.0032542073317198615
-0.013204626645227103 -0.0062100981605854285 0.0029998079259492523 0.0010032352289036312 0.01509401406899643 0.007962253592445437 -0.0013109656440509344 -0.0036776238526026726

B1 f8 [1, 64]
00000000: 6cf1 a008 8606 623f 61f3 ddd6 e831 23bf
00000010: f50b 01d2 d104 363f c274 c610 ab03 17bf
00000020: 6bee c28e 2085 333f 547c 04f0 aea1 d8be
00000030: ce51 d890 1887 19bf f967 1139 e464 503f
00000040: cfd0 2b8f 5508 16bf 49c2 b128 a1c7 c93e
00000050: 7d9a 31b2 3d4c 5f3f 4cdf 548f ed69 21bf
00000060: 581b 3d7d 7d0f 39bf bf1e a260 2b8f 303f
00000070: dffa 5ddf 9247 2bbf e5fe 5373 38d0 e33e
00000080: 50e6 851a 6bc0 313f 9341 ca0a 3b3a 503f
00000090: c45e 71b8 3c32 c33e 2fc5 2347 071a 00bf
000000a0: d593 5511 2030 08bf e196 742e 3051 443f
000000b0: ae4f 0f5c bca3 0a3f 39dd effa 1a89 613f
000000c0: ebd9 3406 9852 443f d873 1306 7ede eebe
000000d0: be5b c97a 5bc8 5d3f 9303 6b24 46b6 d73e
000000e0: 0000 0000 0000 0000 e501 dddd 6fe7 00bf
000000f0: a487 fbca 3e44 0dbf 1efb bcfc 8df2 f4be
00000100: f396 a63b 7f2b 12bf 4a7b 1fbf cded 533f
00000110: 0f30 3320 fe9c 513f 859d daea 3a2e 5a3f
00000120: 898b 92d3 d24f 33bf c46d 957a 1b41 513f
00000130: 6d8b 3ada 613a d4be 2028 8a23 8319 673f
00000140: ff0b 06a4 e400 01bf 2549 3c90 2e74 373f
00000150: a1d5 26c0 26f6 103f fd23 9ccc cb6a 7a3e
00000160: a189 6f89 7496 a53e 6225 aa3a cb9d e63e
00000170: 2b4a a03a c46b e0be 8a38 0118 77fa 2f3f
00000180: 727b 8484 0f4a 04bf f8b0 162f 30d3 353f
00000190: c369 dfe9 5085 703e 4c76 22c4 7f77 053f
000001a0: 9227 cefd 2cef f6be d03d d871 eb0c 413f
000001b0: 93ee eaeb 292b c53e 51fd 9f81 5447 513f
000001c0: f9e0 e747 8f95 173f 74c8 c67d 4cd6 6a3f
000001d0: 2dba be92 54ff 4b3f 1ae8 9f54 937f 04bf
000001e0: 11de afdd 53d5 463f 93dc 6ae7 3ad1 05bf
000001f0: b119 f9c3 bfef 593e ff37 5f61 2a0c 223f
0.0022003763051811533 -0.00014644591595560765 0.00033598063055623124 -8.779269791721597e-05 0.0002978519903640067 -5.872625252117162e-06 -9.738051831959598e-05 0.0010006169070693168
-8.404752933783014e-05 3.073191981388638e-06 0.0019102671147039057 -0.00013285660649286558 -0.0003823930139685203 0.00025267418880801565 -0.0002081267154458643 9.447746928347787e-06
0.00027086844286081536 0.0009904457648738138 2.288370015739732e-06 -3.0711505034983876e-05 -4.613492834940723e-05 0.0006200299511973339 5.081099107653808e-05 0.002140572257754461
0.0006201975160483019 -1.4719538912572329e-05 0.0018177884441194915 5.653383203963689e-06 0.0 -3.224191799100824e-05 -5.582157734608455e-05 -1.997707276690373e-05
-6.931270664852964e-05 0.001216364788426199 0.0010750276276665393 0.0015979361882417509 -0.0002946748459839379 0.0010531204555580412 -4.8227442765194435e-06 0.0028197823815547945
-3.243158107848337e-05 0.00035787712862246835 6.470309748503887e-05 9.841163542077516e-08 6.433640632431793e-07 1.078433145564284e-05 -7.830125316164973e-06 0.00024397567540507633
-3.869876724337571e-05 0.0003330223690578694 6.154464890444523e-08 4.094465886448888e-05 -2.1871834053700428e-05 0.0005203389770844172 2.5234947707822844e-06 0.0010546040780353325
8.996665017224963e-05 0.0032760137530312653 0.0008544123606862346 -3.909748427584365e-05 0.0006968173505574345 -4.1613206965101676e-05 2.4155266452222006e-08 0.00013769166315430456

B2 f8 [1, 10]
00000000: 59d2 09ed 5f8b 6ebf 6d7a b98b 4fb0 71bf
00000010: 66e0 7198 1d4d 73bf a188 5544 730d 6fbf
00000020: b015 2083 1982 6ebf 1340 1a43 eec0 a23f
00000030: 76f3 5bca e204 70bf df6c cdaa 1058 71bf
00000040: 66c9 cd72 2a4c 71bf 5cc4 6fb2 7053 70bf
-0.0037285684159605145 -0.004318533635880512 -0.004712215049146184 -0.003790593271944934 -0.003724145725757487 0.036628194514492084 -0.003910909557586764 -0.004234376054991189
-0.004223028005855367 -0.003985824797369277
